Torch_DL/models/iris/MCF/model_all.pth (torch, 4060 bytes, 6 tensors)

weight f4 [10, 4]
-0.2818123 0.2316072 0.25825256 -0.08221072 0.26553458 -0.08324001 0.09591902 0.5136088
0.10285212 -0.22588938 -0.25589314 -0.08493031 -0.15630585 -0.4037708 0.118173 0.3922571
0.023685656 0.18416235 -0.08750445 -0.2690867 0.43662405 0.037298813 -0.14626995 0.15234144
0.113247976 0.43373528 0.11359418 0.14526783 0.02788988 -0.2001721 0.3224137 0.2983529
0.40734556 0.24272574 -0.45718366 -0.44471103 -0.2132749 -0.3836532 0.33575463 0.22523996
00000000: b449 90be 702a 6d3e ae39 843e 185e a8bd
00000010: 26f4 873e bd79 aabd 3171 c43d de7b 033f
00000020: 22a4 d23d 8c4f 67be 6d04 83be f1ef adbd
00000030: a40e 20be 0cbb cebe b004 f23d ecd5 c83e
00000040: 6c08 c23c 0e95 3c3e 8835 b3bd bbc5 89be
00000050: 308d df3e a4c6 183d cac7 15be 65ff 1b3e
00000060: 8eee e73d 8d12 de3e 11a4 e83d 17c1 143e
00000070: 5179 e43c eaf9 4cbe 6913 a53e b6c1 983e
00000080: 998f d03e 198d 783e fa13 eabe 2ab1 e3be
00000090: bc64 5abe 316e c4be 08e8 ab3e 4ea5 663e

bias f4 [10]
-0.377406 -0.4139692 0.3709525 -0.074113905 0.40885243 -0.105454035 -0.4070159 -0.19302854
0.45579103 -0.22698961
00000000: 5c3b c1be c5f3 d3be 7ced bd3e 08c9 97bd
00000010: 1b55 d13e 49f8 d7bd 6364 d0be 46a9 45be
00000020: 715d e93e f76f 68be

weight f4 [5, 10]
0.11486125 -0.29155388 -0.2950577 -0.2396481 0.04431677 -0.30271438 0.21957955 0.048433065
-0.30178317 0.14825675 0.26886508 -0.060280226 0.096330695 0.134379 0.03009608 -0.11579651
0.20547025 0.060516614 0.3133795 -0.062458597 -0.08869097 -0.120542064 0.24641843 -0.1603646
0.20288984 -0.028309906 -0.16447292 -0.24875863 0.16345075 0.23484895 -0.09138572 0.15044424
-0.17333634 0.091885656 -0.3819342 -0.18769856 0.06796735 0.15888636 0.023290122 -0.022214146
0.1329441 -0.07809992 0.23204824 0.20489535 -0.1869353 -0.04249087 -0.06511402 -0.08056499
-0.1123289 -0.19558121
00000000: 603c eb3d 8d46 95be ce11 97be 5066 75be
00000010: 8085 353d 61fd 9abe 76d9 603e c061 463d
00000020: 5383 9abe 9ed0 173e afa8 893e 66e8 76bd
00000030: 0749 c53d a69a 093e 0e8c f63c b826 edbd
00000040: cb66 523e 45e0 773d 4773 a03e 96d4 7fbd
00000050: 9ca3 b5bd c2de f6bd 1d55 7c3e 9e36 24be
00000060: 5bc2 4f3e 2dea e7bc 976b 28be 95ba 7ebe
00000070: a25f 273e 3e7c 703e 7028 bbbd 0e0e 1a3e
00000080: 157f 31be 8c2e bc3d e18c c3be 0d34 40be
00000090: 7732 8b3d 1bb3 223e edca be3c 71fa b5bc
000000a0: 8022 083e daf2 9fbd 0e9e 6d3e 16d0 513e
000000b0: f86b 3fbe e80a 2ebd 805a 85bd 42ff a4bd
000000c0: b20c e6bd 7146 48be

bias f4 [5]
-0.14615785 -0.034835625 -0.24511753 -0.09730116 0.09626606
00000000: 67aa 15be cdaf 0ebd 1700 7bbe d545 c7bd
00000010: 2427 c53d

weight f4 [3, 5]
-0.28869218 0.16318959 -0.29654273 0.27938473 -0.4354312 -0.3270351 -0.27163225 0.2568529
-0.4240357 -0.37818077 0.14417845 0.12287357 -0.23796277 0.3778106 -0.014771849
00000000: 76cf 93be 2c1b 273e 73d4 97be 840b 8f3e
00000010: d7f0 debe 2571 a7be 6213 8bbe 3982 833e
00000020: 351b d9be e9a0 c1be 84a3 133e 23a5 fb3d
00000030: 83ac 73be 6470 c13e a005 72bc

bias f4 [3]
-0.42680988 -0.098230846 -0.27350485
00000000: d386 dabe 412d c9bd d408 8cbe
