Torch_DL/models/iris/model_train_wbs_0_0.6399859189987183.pth (torch, 5738 bytes, 5 tensors)

weight f4 [10, 3]
0	0xbe171c90	-0.1475699
1	0xbec2d056	-0.38049573
2	0x3eb6d624	0.3571025
3	0x3e8b682c	0.27227914
4	0x3e80dd29	0.25168732
5	0x3ebaf161	0.36512282
6	0x3ea53a97	0.32271263
7	0xbec4a4bc	-0.38406932
8	0x3ee8575a	0.45379144
9	0x3e6bf220	0.23041582
10	0x3dd608b7	0.10450881
11	0x3e272b3e	0.1632509
12	0x3d73e993	0.059548926
13	0x3ed51ed4	0.41625082
14	0x3f10d69f	0.56577486
15	0x3e3232bf	0.1740217
16	0x3efaf8de	0.49017996
17	0xbd9f3a52	-0.077747956
18	0xbed53ce0	-0.41648006
19	0xbed6064a	-0.41801673
20	0x3ee4c010	0.44677782
21	0x3ed9c123	0.42530164
22	0xbe879322	-0.2647944
23	0x3ec0eb27	0.37679407
24	0xbee2876a	-0.44243938
25	0xbe21bf9e	-0.15795752
26	0xbdef8618	-0.11695498
27	0xbf02e62c	-0.51132464
28	0xbf0ac82f	-0.54211706
29	0x3d50c080	0.050964832

bias f4 [10]
0	0xbe58b7e5	-0.211639
1	0xbee7c195	-0.4526488
2	0xbe8d0532	-0.27543026
3	0xbf136d2f	-0.57588476
4	0x3e582909	0.21109404
5	0xbafd01b9	-0.0019302882
6	0xbe272d2c	-0.16325825
7	0x3ea51008	0.32238793
8	0xbe6ee286	-0.233286
9	0xbcca4f80	-0.024696112

weight f4 [30, 10]
0	0xbe317d1b	-0.1733288
1	0x3e89a603	0.2688447
2	0x3d887e2e	0.06664692
3	0x3d36d8b8	0.044640273
4	0x3e447573	0.19185428
5	0xbdb8904b	-0.09011897
6	0xbe896ed3	-0.26842365
7	0x3e39ccd2	0.18144539
8	0x3e8611d7	0.26185486
9	0xbe4a5f44	-0.19762903
10	0xbe2809c4	-0.16409975
11	0x3e350e76	0.17681298
12	0x3e1b80ff	0.15185927
13	0x3e343f72	0.17602327
14	0x3dada46a	0.08478625
15	0xbd90d941	-0.07072688
16	0x3e6b9652	0.23006561
17	0xbdf6b50e	-0.12046252
18	0xbe00d260	-0.12580252
19	0xbdea2ec2	-0.114346996
20	0xbd908341	-0.07056285
21	0x3d69942b	0.05702607
22	0xbe000b48	-0.12504303
23	0x3e15a3fd	0.14613338
24	0x3e8ba687	0.27275488
25	0x3d0d2663	0.034460437
26	0x3e141606	0.14461526
27	0x3d27d246	0.040972017
28	0x3e71d762	0.23617318
29	0x3d7df2c0	0.061999083
30	0xbe98bd04	-0.29831707
31	0x3d2a1760	0.0415262
32	0x3cc20190	0.023682386
33	0x3d9f04e8	0.07764608
34	0xbdd3466e	-0.10316168
35	0xbdf5b9aa	-0.11998303
36	0x3e51d43e	0.2049112
37	0x3d7bf850	0.061516106
38	0xbc0f6940	-0.008753121
39	0x3e8f3c03	0.27975473
40	0x3ea006b5	0.31255117
41	0xbddce574	-0.10785952
42	0x3e286720	0.16445589
43	0x3e12a9a8	0.14322531
44	0xbe94aa04	-0.29035962
45	0xbe278728	-0.16360152
46	0xbe659494	-0.2241996
47	0xbe3d0154	-0.18457538
48	0x3e10a5a6	0.1412569
49	0xbe26bc74	-0.16282827
50	0x3e7f1f5e	0.2491431
51	0x3d95472c	0.072889656
52	0xbe250010	-0.16113305
53	0xbe777252	-0.24164703
54	0xbe87f14a	-0.26551276
55	0x3ea1e00f	0.31616256
56	0x3e8e73bd	0.27822676
57	0xbe8b5fe0	-0.27221584
58	0x3e1b0144	0.15137202
59	0xbe3deae9	-0.18546642
60	0x3cb47070	0.02202627
61	0xbe8827e9	-0.2659295
62	0x3de5b4c0	0.11216116
63	0xbdddbaba	-0.10826631
64	0x3d500f80	0.050796032
65	0x3e2a131e	0.16608855
66	0xbe36f8df	-0.17868374
67	0xbe575a89	-0.2103063
68	0xbd8aac9a	-0.067712024
69	0xbe58a5c6	-0.21156988
70	0xbe9b7b90	-0.30367708
71	0x3e5d5f1a	0.2161831
72	0xbe49498a	-0.19656959
73	0x3e9d5fcc	0.3073715
74	0xbcd68a51	-0.026189001
75	0x3e591fcf	0.2120354
76	0x3e3ccafe	0.1843681
77	0xbe4d3bbe	-0.20042321
78	0xbd2280e0	-0.039673686
79	0xbc0fd2c0	-0.008778274
80	0x3de20efc	0.11038014
81	0xbe9dfe6d	-0.30858174
82	0x3de732d8	0.112889946
83	0x3e2d9f32	0.1695526
84	0xbe3687dc	-0.17825264
85	0x3da80ee4	0.08205965
86	0xbdd29b3c	-0.10283515
87	0x3d4997f0	0.049217165
88	0xbe1c6175	-0.15271552
89	0x3e82b6cf	0.25530097
90	0xbe001114	-0.12506515
91	0xbe3b9c4b	-0.1832134
92	0x3e9faa0a	0.31184417
93	0x3e92f2c3	0.28700837
94	0xbd947144	-0.07248166
95	0x3e7969c2	0.2435675
96	0xbdf38e18	-0.118923366
97	0xbe8198a2	-0.25311762
98	0xbca3a6c0	-0.019976974
99	0xbe713b8c	-0.23557872
100	0x3dcd1ce2	0.100152746
101	0x3debc29b	0.115117274
102	0x3e88d78d	0.26726952
103	0x3db30051	0.08740295
104	0x3d8d0734	0.068861395
105	0xbdabcf11	-0.08389104
106	0x3dddd9bc	0.10832545
107	0x3e9b1b55	0.3029429
108	0x3dc0990c	0.094041914
109	0x3e022680	0.12709999
110	0xbe95d645	-0.29265037
111	0x3e19091c	0.14944881
112	0x3da914b8	0.08255905
113	0x3dbac35c	0.09119293
114	0xbe04f0ca	-0.12982479
115	0x3e11a17c	0.14221758
116	0x3e498d5e	0.19682834
117	0xbe48c022	-0.19604543
118	0x3e1f754e	0.15572092
119	0x3d5cd048	0.05390957
120	0x3e75103a	0.23931971
121	0x3e191d9e	0.14952704
122	0xbe05c48b	-0.13063256
123	0xbe2aca92	-0.16678837
124	0x3e7fdb2e	0.24985954
125	0xbe202eb5	-0.15642817
126	0xbdbdc2a2	-0.09265639
127	0xbe7bc732	-0.24587706
128	0x3e474f86	0.1946393
129	0x3e38cdc2	0.1804724
130	0xbcca0ffa	-0.024665821
131	0x3e5529fb	0.20816796
132	0x3e4c7d0a	0.19969574
133	0x3e85c97a	0.26130277
134	0x3e2ddf61	0.16979744
135	0x3e4d33b2	0.20039251
136	0xbe9a43e6	-0.30129927
137	0xbe949177	-0.2901723
138	0xbddeae2a	-0.10873063
139	0x3de1fd6c	0.110346645
140	0x3e756eea	0.23968092
141	0x3e95a3df	0.29226586
142	0xbe74cab4	-0.2390545
143	0x3e2eae9a	0.17058793
144	0x3dcaaec9	0.09896619
145	0x3d9dd494	0.07706562
146	0x3e5166ca	0.20449367
147	0xbe8dd162	-0.2769881
148	0xbe8d3e26	-0.27586478
149	0x3d902bc0	0.07039595
150	0x3e349a86	0.17637071
151	0x3e821bd3	0.25411853
152	0xbe6523b0	-0.22376895
153	0xbd938331	-0.07202757
154	0x3dd04fad	0.10171447
155	0x3dda8167	0.10669213
156	0xbe9c105e	-0.30481237
157	0x3e542656	0.20717749
158	0xbe83b8a9	-0.25726822
159	0xbd5c2528	-0.053746372
160	0x3e32cb84	0.17460448
161	0xbd3fc778	-0.046821088
162	0xbe53c67e	-0.20681188
163	0xbe3d8db2	-0.18511084
164	0xbe267506	-0.16255578
165	0x3e8cb561	0.2748213
166	0xbd5626b8	-0.05228302
167	0xbde1652c	-0.11005625
168	0x3ddad080	0.106842995
169	0x3e4d2532	0.2003372
170	0x3e1a25ca	0.15053478
171	0x3c32eb5e	0.010920374
172	0x3e0ecac2	0.13944533
173	0xbd50c787	-0.050971534
174	0x3db203f8	0.08692163
175	0xbdd5b882	-0.10435583
176	0xbe436298	-0.1908058
177	0x3e75af74	0.23992711
178	0xbd1fe2a8	-0.039034516
179	0xbe24714a	-0.16058841
180	0x3e57ac45	0.2106181
181	0xbc03cdaf	-0.008044644
182	0x3e7041a2	0.23462537
183	0xbd8df0b5	-0.06930677
184	0x3e56622d	0.20935889
185	0x3be8a65f	0.007099911
186	0xbe235324	-0.15949684
187	0xbdf5988a	-0.11991985
188	0xbe83ebcd	-0.2576584
189	0xbdb28652	-0.08717026
190	0x3d63d5d0	0.05562383
191	0x3dbb13dc	0.09134647
192	0x3e025c7e	0.12730595
193	0xbe82bb5c	-0.2553357
194	0x3d6cd6a8	0.0578219
195	0xbd5ac008	-0.05340579
196	0xbe94a0be	-0.29028887
197	0xbe91b52a	-0.2845853
198	0xbdf0da1c	-0.11760351
199	0xbe96bf73	-0.2944294
200	0x3df47b4a	0.11937578
201	0x3e33304e	0.17498896
202	0x3ea673f0	0.32510328
203	0x3d5e414d	0.054261494
204	0xbe318395	-0.17335351
205	0xbd30723e	-0.0430777
206	0xbd90340e	-0.07041179
207	0x3e566f48	0.20940888
208	0xbd8f3a5a	-0.069935516
209	0x3e86ae95	0.2630507
210	0x3e08942c	0.13337773
211	0x3dcc77c7	0.09983783
212	0x3e970673	0.29497108
213	0x3e483c76	0.19554314
214	0x3df8f28e	0.12155639
215	0xbe5feef7	-0.21868502
216	0xbe4b6aba	-0.19864932
217	0xbe886f91	-0.26647618
218	0xbcd6da70	-0.026227206
219	0xbe91a98f	-0.28449675
220	0xbd8a45fc	-0.0675163
221	0xbd104580	-0.03522253
222	0x3e9b4ea1	0.30333427
223	0x3d541690	0.05177933
224	0x3d9b76b0	0.07590997
225	0xbe7c1cf6	-0.24620423
226	0x3d9a4dec	0.07534394
227	0xbe36b3c9	-0.1784202
228	0xbdc14212	-0.0943643
229	0xbea0c971	-0.31403688
230	0xbe8fd0fe	-0.28089136
231	0x3e8c0b9f	0.27352616
232	0xbe2d8ba1	-0.16947795
233	0xbdc61bab	-0.09673246
234	0x3ea15f1d	0.31517878
235	0x3e7153e6	0.23567161
236	0xbcffa340	-0.031205773
237	0xbd88d251	-0.0668074
238	0x3df9de68	0.12200624
239	0xbe97a7b4	-0.29620135
240	0xbc2a74e0	-0.010403842
241	0xbe16d5af	-0.14729951
242	0xbd9cba9a	-0.07652779
243	0x3e89e553	0.26932773
244	0x3e601492	0.21882847
245	0xbe395495	-0.18098672
246	0xbd2a7730	-0.041617572
247	0xbe256bc8	-0.16154397
248	0xbe9b4088	-0.3032267
249	0x3dfffca8	0.12499362
250	0xbe8774bd	-0.26456252
251	0x3e34a0c4	0.17639452
252	0xbd909e1d	-0.07061408
253	0xbd8075bf	-0.06272458
254	0x3d2fc94d	0.042916585
255	0x3e611e4b	0.21984212

bias f4 [30]
0	0x3e890b69	0.26766518
1	0x3d46c093	0.048523497
2	0xbe0a3597	-0.13497005
3	0xbe142eda	-0.14470997
4	0x3d38ad70	0.045087278
5	0x3e0215ae	0.12703583
6	0xbe24de8e	-0.16100523
7	0x3da57b87	0.080802016
8	0xbdfea45c	-0.12433693
9	0x3e81d278	0.25355887
10	0x3d972267	0.073796086
11	0xbea01ffc	-0.31274402
12	0xbd9f7f72	-0.0778798
13	0x3e3f196e	0.18662044
14	0xbe204b56	-0.15653738
15	0x3e672163	0.2257133
16	0xbe303f40	-0.17211628
17	0x3e2423e3	0.16029315
18	0x3df1dc57	0.118096046
19	0xbe7b46b0	-0.24538684
20	0xbe95e047	-0.29272673
21	0xbdf816e0	-0.12113738
22	0xbe9c967c	-0.3058356
23	0x3d1530df	0.03642356
24	0xbe8688c3	-0.26276216
25	0x3e96c949	0.29450443
26	0x3e7b0458	0.24513376
27	0x3cdf46d0	0.027255446
28	0x3e578046	0.21045026
29	0x3e6207dc	0.2207331

weight f4 [1, 30]
0	0x3ce94a67	0.02847786
1	0x3d4d7db3	0.050168704
2	0x3bd4764a	0.0064838277
3	0xbd751c2a	-0.059841312
4	0xba95dd80	-0.001143381
5	0x3deb0798	0.11476058
6	0x3e0fdd72	0.14049318
7	0x3e149353	0.14509325
8	0xbd628fe4	-0.055313006
9	0xbdad5395	-0.08463208
10	0x3e26b1e2	0.16278794
11	0x3d8afdc4	0.06786683
12	0x3d14bdf8	0.03631398
13	0x3e19b83d	0.15011688
14	0xbd9470ec	-0.07248101
15	0x3c1c6024	0.009544406
16	0x3d950844	0.07276967
17	0x3dda0f88	0.106474936
18	0xbe0740eb	-0.13208358
19	0xbc5a5110	-0.013324991
20	0x3dc1c167	0.09460717
21	0x3ddd2bbf	0.107993595
22	0x3d1daa50	0.0384925
23	0x3df07dda	0.11742754
24	0xbe1af3ce	-0.15132067
25	0xbd22c42b	-0.03973786
26	0x3ca09f70	0.019607276
27	0x3dde26c8	0.10847241
28	0x3db257d0	0.08708155
29	0xbd5e83a5	-0.054324765
