Torch_DL/models/iris/model_train_wbs_0_-0.18291103839874268.pth (torch, 4670 bytes, 5 tensors)

in_layer.weight f4 [10, 3]
00000000: 203f d8bd 56cd 10be 3eb5 09be eb56 653e
00000010: 41df b23e f0d2 28bb 934e e43e 232d 96bc
00000020: 5441 a43e c889 e13e 5b51 413e fb4f c73e
00000030: 6efc 053f b0bf 883e d17e aabe 50a5 a3be
00000040: 662b 9d3e 83de a1be 9c94 533d 618e 013e
00000050: dd46 82bd 3345 a1be 9603 ebbe d832 adbd
00000060: 2f5b ae3d 2388 873e 9745 583e e1bf 13bf
00000070: 1ace b43e 6009 56bd
-0.10558915 -0.1414083 -0.13448045 0.22396438 0.34935954 -0.0025760494 0.44591197 -0.01833207
0.3208109 0.4405043 0.18878691 0.38928208 0.523383 0.26708746 -0.33299878 -0.3196206
0.30697173 -0.31615075 0.051655397 0.1265197 -0.06361172 -0.31498107 -0.45901173 -0.08456963
0.08513486 0.26471052 0.21120296 -0.5771466 0.35313493 -0.052255034

in_layer.bias f4 [10]
00000000: 6f86 b3be a780 013f fc8f 0d3f 6809 cabe
00000010: 9329 c03e 2879 cbbd 6f99 953d 963d 0bbe
00000020: edf5 1dbe d4f6 a63e
-0.35063502 0.5058693 0.5529783 -0.394603 0.3753172 -0.09935218 0.07304656 -0.13597712
-0.15425844 0.3261019

hd_layer.weight f4 [30, 10]
00000000: 94b0 7fbe d511 debb 5352 6d3e f967 953e
00000010: 595e 0fbe 14a7 7dbe f2d7 a13d 40cd 9ebb
00000020: 7b6f 9c3e e160 963e 20c8 573d 2060 9e3c
00000030: e203 11be 80bf 84bb 200a bf3c 72cb 19be
00000040: 8c82 263e dade b6bd 2400 b73d 7e29 4d3e
00000050: 8052 983c c097 d8bd 0481 97bd bb18 8dbe
00000060: dc1c a53d 4c7c 333e 5fc5 96be 52d5 96be
00000070: fe45 47be 6a7e 443e c0dc e3bb d6f1 56be
00000080: 6094 013d c656 94be 0030 293e 765c 18be
00000090: d43a ef3d 8182 89be adb4 8ebe 0008 11bc
000000a0: 609a 603d a0de 47bc 1b84 01be e0c7 00bc
000000b0: 4e55 83be a729 6ebe 1917 813e 36c6 473e
000000c0: b819 9fbd 6c18 de3d b8fa 66bd 3c4e 9cbe
000000d0: 00db 2a3d e63f 88be aabc 3f3e 4e2d 7d3e
000000e0: 4017 983d b485 cebd 7c81 f93d 009c e83b
000000f0: e6a8 3bbe 9c02 22be acaf 363e 3075 973e
00000100: 74b7 68be 608f 733d 23a2 9ebe 2cb6 86bd
00000110: 252a 453d 762c 313e 2869 15bd 9c63 b83d
00000120: 2ed7 5cbe a814 de3d c599 20be f8e1 a43d
00000130: 1909 0abe 6cf4 203e e039 4bbd 2208 61be
00000140: 52b3 223e 16d0 e5bd 6970 a53e c06a 313d
00000150: 63b7 8f3d faae 7f3e 273a 953d f253 66be
00000160: 9f52 d73c f046 81be 64e1 cf3d 449e 6fbe
00000170: cc1a 87be 6e69 92be ca1d a1be 200c a33d
00000180: 9598 953e e425 78be 787b 7dbd 283a 8ebe
00000190: 1cf2 f13d b8eb 483d 50a4 97be 9a31 3dbe
000001a0: 4048 b63b d454 49be e86e 75bd 7f96 92be
000001b0: 00be 213e c19a 98be 6bb7 8cbe 03c7 dfbc
000001c0: cdd5 fe3d 6d4d 52be 81d0 283b f1e0 993e
000001d0: fa3b f23d 8caf c13d 50b0 883d 1cae 8e3d
000001e0: 2470 9e3d 248d 9f3d 328c 6a3e a769 9ebe
000001f0: e2ae 14be e3a3 a13e fcd4 95bd 0c0a 9fbe
00000200: d822 003d 3afd 783e e8f1 c33d 0da2 853e
00000210: 7689 573e 38d5 983e 7354 15be a0fb 8cbe
00000220: 738c 933b ab2f 933e 4898 f43d d284 91bd
00000230: 48f1 1cbd ccc6 693e 28a8 87bd 7d9e 993d
00000240: 7e5d ed3d 5b59 8d3e dfe7 283b 4085 9fbc
00000250: a7b5 20bc 002b 543c eac5 6d3e 81b7 ddbd
00000260: bded a3bd 2818 873e 63ed d73b 2537 9c3e
00000270: 5b35 e4bd fdad 94be 7f8f fd3d 2623 223e
00000280: 2a12 d8bd 1685 2a3d 97dd 1fbe cece 283e
00000290: e809 653e 483a 193d 7c66 9c3e 5a82 4c3e
000002a0: d84e 2c3e 06c1 3d3e 4663 713e b7bd 963e
000002b0: 5606 803c 3800 23bd 1232 32bc 6404 e23d
000002c0: e891 4d3e 519c 81be 57d4 e43c 90ad d8bc
000002d0: 2ef9 f3bd f07e 8fbb 2281 1d3e 1de2 553c
000002e0: 1c70 99bc 7650 96be a235 073c 60ef e5bc
000002f0: 7d77 323e 6609 773e 8dcd a13e 668a 053e
00000300: a80b 2b3d 0496 e9bd 5adf 93bd 4c86 b43d
00000310: 6032 1fbe ac00 58be b210 b7bd efd7 893e
00000320: 90c7 1ebd 1499 a53d 53aa 8ebe 440f 86be
00000330: 8534 893e dc6a 3a3e 7c36 843d 02ec 5b3e
00000340: caa2 6e3e e559 3fbe 63a9 8e3e b0e9 d33c
00000350: 5013 043e 30c5 883d eaa4 6dbe 68ca 613d
00000360: 1ece 0f3e 5942 2ebe 17d0 9fbe 08ee d93d
00000370: f888 ab3d 8d0a 923e e76e 543e f5c9 1d3d
00000380: 6599 333e 00e3 0e3d b498 82be 3c49 ccbd
00000390: 1165 0b3d c0f8 74be 1084 db3c 7a7c 36be
000003a0: 2260 6e3e 0ec7 cfbd c31f 88be 16f8 3e3e
000003b0: d44b f43d f835 b03d 280c b03d 87b7 69be
000003c0: 015c 943e 5354 853e 76c9 9b3d c9a0 1abe
000003d0: e35a 463e 7313 983e c22e 923e 00e9 e8ba
000003e0: 582a 3b3e 2ef7 07be ca5c 8cbe 9ace 593e
000003f0: 5e8c e1bd f9ad 98be 707a e9bc 42c4 94be
-0.24969703 -0.006777028 0.23175935 0.29180887 -0.14000835 -0.24770766 0.079025164 -0.004846245
0.30553803 0.29370788 0.05268109 0.019332945 -0.14161637 -0.004051149 0.023320258 -0.15019014
0.16260737 -0.08929224 0.08935574 0.2003536 0.018594027 -0.10575819 -0.07397655 -0.2755793
0.08062145 0.17527884 -0.29447457 -0.29459625 -0.19460294 0.19188848 -0.0069538057 -0.2099069
0.031635642 -0.28972453 0.16522217 -0.14879021 0.116811424 -0.2685738 -0.2787222 -0.008852005
0.054834723 -0.012199074 -0.1264805 -0.007860154 -0.2565102 -0.23258077 0.25212935 0.19509205
-0.07768577 0.10844502 -0.056391448 -0.30528438 0.04171276 -0.2661125 0.18724313 0.24724314
0.074263096 -0.100840956 0.121829 0.007098675 -0.18326148 -0.15821308 0.17840451 0.29581594
-0.22726232 0.059462905 -0.30983075 -0.06577715 0.048135895 0.17302117 -0.036477238 0.09003374
-0.2156646 0.108437836 -0.15683658 0.080509126 -0.13480033 0.1571824 -0.04961574 -0.21975759
0.15888718 -0.1122133 0.32312325 0.043314695 0.070174 0.24969092 0.07286482 -0.2249296
0.026284514 -0.25249434 0.10150412 -0.23400217 -0.26387632 -0.2859606 -0.3146804 0.07961297
0.29217973 -0.24233204 -0.061885327 -0.27778745 0.11813757 0.049052924 -0.29617548 -0.18475953
0.005562812 -0.19661266 -0.05992022 -0.28630444 0.15795135 -0.29805568 -0.27483687 -0.027316576
0.12443123 -0.20537348 0.0025759044 0.3005443 0.11827846 0.09457311 0.06674254 0.069668025
0.07736233 0.07790592 0.22905043 -0.3093998 -0.14519837 0.31570348 -0.07316014 -0.31062353
0.03128323 0.24315348 0.09567624 0.26100197 0.21048531 0.29850173 -0.14582996 -0.27535725
0.004502827 0.28747305 0.11943108 -0.071054116 -0.03831604 0.22829741 -0.0662387 0.07500932
0.11590098 0.27607235 0.0025772972 -0.019472718 -0.009808934 0.012949705 0.2322003 -0.10826016
-0.08004329 0.26385617 0.006589578 0.30510822 -0.11142989 -0.29038993 0.12380885 0.1583372
-0.105503395 0.041630827 -0.15611874 0.1648514 0.2236706 0.037409097 0.3054694 0.199716
0.16826952 0.18530664 0.23573026 0.29441616 0.015628021 -0.03979513 -0.0108761955 0.11035994
0.2007519 -0.25314572 0.027933283 -0.026449949 -0.11912762 -0.004379146 0.15381292 0.013054398
-0.018730216 -0.29358262 0.008252533 -0.028068244 0.17428394 0.24124679 0.31602135 0.13041076
0.041759163 -0.11405566 -0.07220335 0.088146776 -0.1554656 -0.21094006 -0.08938731 0.26922557
-0.038764536 0.08085838 -0.27864322 -0.26183522 0.26797882 0.18204826 0.064557046 0.21476749
0.23304287 -0.18686636 0.27863607 0.025868267 0.12897992 0.066782355 -0.23207441 0.05512467
0.14043471 -0.17017497 -0.31213447 0.10641104 0.08375734 0.28523675 0.20745431 0.03852268
0.17538984 0.034884453 -0.25507128 -0.09974906 0.03403193 -0.23923016 0.02679637 -0.17820922
0.2327886 -0.101453885 -0.26586732 0.18649325 0.119285256 0.08604044 0.085960686 -0.22823916
0.28976443 0.26040897 0.07606785 -0.15100397 0.19370608 0.2970234 0.28551298 -0.0017769635
0.18277872 -0.13277885 -0.27414542 0.21270218 -0.11013101 -0.2982023 -0.028500766 -0.29055983

hd_layer.bias f4 [30]
00000000: 1747 70be 78a8 553d 605f 5e3d b4cc e2bd
00000010: b2f0 703e 305f c83d e02b 7fbe 1604 1dbe
00000020: 50ff a4bd ab3f a13e 5796 933e 7fbe 823e
00000030: 2e3b 793e 1271 293e 3b95 58bc 7aae 19be
00000040: 182a d73d 92af 8cbe 2144 96be 52b8 44be
00000050: c0f6 f83b 0c85 c03d 99a5 f8bc a8de 81be
00000060: aa2c c0bd 803f 423c de0a 653e 9e52 7e3e
00000070: f9bc 75bd 159f 4f3d
-0.23464619 0.052162617 0.054290175 -0.110742 0.23529318 0.097837806 -0.2491908 -0.1533359
-0.080565095 0.31493887 0.28825638 0.25535962 0.24338982 0.16547039 -0.013219173 -0.15007964
0.105060756 -0.274777 -0.29348853 -0.19210938 0.0075977743 0.09400377 -0.0303524 -0.25365186
-0.09383519 0.01185596 0.22367427 0.24836203 -0.05999467 0.05068882

out_layer.weight f4 [1, 30]
00000000: 53b5 143e ac2c 243e 4ce7 fb3d 0340 2ebe
00000010: 5b9b 0ebe 1cca 7ebd 27d9 f7bb 1ed3 1b3e
00000020: 6a14 7f3d 04c2 e03d ad0d f2bd 6292 5cbd
00000030: 6006 ff3c 16b0 cdbc 979e 4dbd e45f 0f3e
00000040: 52f0 303e c993 c53d f9d0 15be bcd1 2f3d
00000050: 50fc 78bc 10ea f4bc e58e 993d d089 223e
00000060: 004c 55bc 7817 983d ef6c 353c 00ef 1b3d
00000070: 3d60 04be 2811 5cbd
0.14522295 0.16032666 0.12299976 -0.17016606 -0.13926451 -0.062204465 -0.0075637284 0.15217254
0.062275328 0.109745055 -0.11819015 -0.05385054 0.03113097 -0.025108378 -0.05020007 0.14001423
0.17279175 0.096473284 -0.14630498 0.042924628 -0.015196875 -0.029896766 0.07497958 0.15872884
-0.013018608 0.07426351 0.011073335 0.038069725 -0.12927337 -0.0537273
