Torch_DL/models/iris/model_train_wbs_0_-1.3149032592773438.pth (torch, 4660 bytes, 5 tensors)

in_layer.weight f4 [10, 3]
0.21166082 0.5085823 0.39858586 -0.42305028 0.16385682 0.45424405 0.1522752 -0.37035352
-0.39257544 0.08481309 -0.13447045 0.19937266 -0.36329105 0.45410436 0.3772168 -0.3969674
0.20786095 -0.3594749 0.16493185 0.31913847 0.23721847 0.5406509 0.5170871 -0.38348708
-0.49425018 0.39212382 0.04172659 -0.17706603 -0.22691745 0.05963224
00000000: 9dbd 583e 7332 023f 7213 cc3e 0c9a d8be
00000010: 15ca 273e ad92 e83e 08ee 1b3e fa9e bdbe
00000020: a6ff c8be 7cb2 ad3d 9fb2 09be 5928 4c3e
00000030: 4901 babe 5e80 e83e 8f22 c13e 503f cbbe
00000040: 80d9 543e 180d b8be e5e3 283e 1e66 a33e
00000050: 66e9 723e 1968 0a3f d25f 043f 6b58 c4be
00000060: 5c0e fdbe 74c4 c83e 80e9 2a3d cc50 35be
00000070: 0c5d 68be f040 743d

in_layer.bias f4 [10]
0.32596013 -0.0034614438 -0.49575168 0.34982222 0.53658867 -0.36659443 0.0646871 0.20213078
-0.014916182 0.15408492
00000000: 3fe4 a63e 64d9 62bb 2ad3 fdbe e61b b33e
00000010: e05d 093f 44b2 bbbe ac7a 843d 5ffb 4e3e
00000020: 0063 74bc 70c8 1d3e

hd_layer.weight f4 [30, 10]
0.1563596 0.09049321 0.28829286 -0.071237355 0.24852334 0.17665213 0.07173279 0.04275189
0.13527441 -0.08238448 -0.25294745 -0.09863119 0.04938355 -0.17559166 0.24113402 0.15168694
-0.16269787 -0.27310053 -0.01613769 0.19493183 0.07291766 -0.20059589 0.23572269 -0.19853774
0.22825065 0.13524538 -0.06802623 0.28589988 0.23096105 -0.040720016 -0.13949482 -0.13255602
0.2259551 -0.2743114 -0.16651766 -0.29158413 -0.30111772 0.31464544 0.0129022 -0.26459473
-0.311217 0.15777087 -0.23212293 0.1163263 0.23859587 -0.2922 -0.17630161 -0.2061256
-0.21016893 0.23718038 -0.29350632 0.31537107 -0.2357549 -0.11895993 0.12640175 -0.21811537
0.054872274 0.20181313 -0.13761075 -0.06054768 0.3207153 -0.14947656 0.29911122 0.04600998
0.11971673 0.15069535 0.19437003 -0.11581301 0.029870361 0.2633616 -0.2883432 0.212172
-0.15056983 0.05052319 -0.04727274 -0.12890765 -0.1574034 -0.14621304 0.034065574 -0.21554215
-0.0036933124 -0.109300196 -0.24530491 -0.19260012 -0.087672725 -0.30180624 -0.14410584 -0.14676605
0.035551816 -0.04734522 0.30680943 0.23060322 0.053876847 0.02460615 -0.27163368 -0.028771847
-0.19584502 -0.1786435 -0.02821961 0.28024742 0.036132812 0.04247406 0.26913264 -0.16837075
-0.06505209 -0.1274586 -0.20074815 -0.013985723 -0.27004755 -0.1728006 0.19999616 0.20604223
0.22986534 -0.2400407 0.23144846 -0.14597192 0.26001397 -0.0053951605 -0.22284058 0.1334936
0.27554572 0.11983829 0.14299485 -0.058532603 0.095864534 0.037736505 0.2629961 -0.14735904
0.08687121 0.22635505 0.25181863 -0.10795489 -0.06567547 -0.24015161 -0.24104151 -0.20243296
-0.11474173 -0.1483234 0.14533651 -0.07988164 0.10156294 -0.12784436 0.09529671 0.18884733
0.10540345 0.14766407 -0.27431008 0.17455496 -0.2773726 0.1917685 0.015486538 0.23009077
0.046322495 0.12413469 -0.18653624 -0.28853232 -0.19321996 -0.025160253 -0.036234826 -0.19397244
0.20776838 0.09204956 0.30648294 -0.14522682 0.22564618 0.25522235 -0.0034647787 -0.09503178
0.058752388 0.14330637 0.03125713 0.15040392 -0.20906052 -0.03632191 0.16962366 0.1259504
-0.20428638 0.12400648 0.030046016 0.17439324 0.16037565 0.037207037 -0.20626128 0.12077013
-0.1667912 -0.14154641 -0.18540962 -0.2899923 -0.120872244 0.08415085 0.21399261 -0.26945308
-0.22014831 0.029439485 0.22158013 -0.2742036 -0.13847205 0.18239787 0.22426924 0.042892665
-0.19642577 0.28897583 0.295391 0.2846244 0.17598738 0.2185562 -0.06838366 0.2604687
-0.24356824 0.091142625 -0.059015602 0.17378268 0.29733244 -0.26596025 -0.19026326 -0.2683397
-0.3105887 -0.21731713 -0.1054187 0.01442337 0.05235377 -0.2847271 0.03228289 0.06480399
0.005037427 -0.2944791 -0.19506194 -0.20013067 0.2666315 0.18380073 0.0027041913 0.22555415
0.092604965 0.17319869 -0.124101415 0.2426227 0.1310919 0.03059769 0.16763893 0.1266188
0.04904169 -0.12223801 0.2023432 0.19600001 0.016852468 -0.24695289 -0.31008458 -0.23952894
0.053759485 -0.07372823 -0.14533918 0.0036594295 0.21997568 0.03206017 0.1513479 0.15624198
00000000: bb1c 203e 8154 b93d 1f9b 933e e4e4 91bd
00000010: e77c 7e3e 4ce4 343e a4e8 923d 9b1c 2f3d
00000020: 6085 0a3e 32b9 a8bd 5482 81be 26ff c9bd
00000030: 6846 4a3d 4dce 33be d6eb 763e d253 1b3e
00000040: 459a 26be d5d3 8bbe 3033 84bc 369c 473e
00000050: db55 953d 0269 4dbe 4a61 713e 7a4d 4bbe
00000060: 8aba 693e c47d 0a3e 5651 8bbd 7861 923e
00000070: 0e81 6c3e 08ca 26bd bbd7 0ebe c4bc 07be
00000080: c660 673e 8b72 8cbe 9b83 2abe 844a 95be
00000090: 1a2c 9abe 3519 a13e c063 533c f678 87be
000000a0: d657 9fbe b08e 213e a2b1 6dbe 7c3c ee3d
000000b0: 7a52 743e 3d9b 95be 6988 34be 9712 53be
000000c0: 8636 57be 6adf 723e 7646 96be 5178 a13e
000000d0: bc69 71be 44a1 f3bd 766f 013e a359 5fbe
000000e0: c0c1 603d 1aa8 4e3e d5e9 0cbe d800 78bd
000000f0: cc34 a43e 6210 19be 1b25 993e f674 3c3d
00000100: 0c2e f53d e24f 1a3e f008 473e 5f2f edbd
00000110: b0b2 f43c 55d7 863e b8a1 93be 9e43 593e
00000120: fa2e 1abe 68f1 4e3d 10a1 41bd 5e00 04be
00000130: 5b2e 21be dfb8 15be 5888 0b3d 15b7 5cbe
00000140: 800b 72bb c8d8 dfbd 3631 7bbe f738 45be
00000150: c28d b3bd 5986 9abe 7b90 13be d749 16be
00000160: c89e 113d 10ed 41bd 2016 9d3e 4023 6c3e
00000170: f8ad 5c3d d692 c93c 9213 8bbe f0b2 ebbc
00000180: 998b 48be 52ee 36be d02c e7bc 977c 8f3e
00000190: 0000 143d 48f9 2d3d c1cb 893e 6269 2cbe
000001a0: 083a 85bd 8284 02be ec90 4dbe 6024 65bc
000001b0: ac43 8abe a4f2 30be cbcb 4c3e bcfc 523e
000001c0: d261 6b3e 3bcd 75be d300 6d3e aa79 15be
000001d0: 8d20 853e e3c9 b0bb 5230 64be 8cb2 083e
000001e0: 5414 8d3e c76d f53d 3e6d 123e e2bf 6fbd
000001f0: a054 c43d 9891 1a3d 6da7 863e 4ae5 16be
00000200: 88e9 b13d 9ec9 673e 5fee 803e 7417 ddbd
00000210: dc80 86bd 4eea 75be 96d3 76be 964a 4fbe
00000220: b6fd eabd 17e2 17be 18d3 143e fc98 a3bd
00000230: 3b00 d03d a2e9 02be ec2a c33d 3261 413e
00000240: c4dd d73d 4035 173e 5f72 8cbe 89be 323e
00000250: c803 8ebe f65e 443e 40bb 7d3c ea9c 6b3e
00000260: a8bc 3d3d 543a fe3d 5b03 3fbe 82ba 93be
00000270: 74db 45be e01c cebc f86a 14bd b6a0 46be
00000280: 3cc1 543e 7b84 bc3d 55eb 9c3e 57b6 14be
00000290: cb0f 673e 81ac 823e 5711 63bb 06a0 c2bd
000002a0: 58a6 703d e8be 123e 7a07 003d 7c03 1a3e
000002b0: f613 56be 48c6 14bd d3b1 2d3e 24f9 003e
000002c0: 7330 51be 1cf7 fd3d 1023 f63c 2494 323e
000002d0: 8439 243e 6866 183d 2836 53be 5456 f73d
000002e0: 50cb 2abe 8bf1 10be 05dc 3dbe df79 94be
000002f0: de8b f7bd 4857 ac3d e120 5b3e c1f5 89be
00000300: 8f6e 61be 132b f13c e7e5 623e 6a64 8cbe
00000310: 9ecb 0dbe 82c6 3a3e d6a6 653e 38b0 2f3d
00000320: d623 49be a4f4 933e 7d3d 973e 4aba 913e
00000330: 0936 343e 32cd 5f3e bb0c 8cbd 275c 853e
00000340: f469 79be fca8 ba3d 58ba 71bd 16f4 313e
00000350: f53b 983e f12b 88be 5fd4 42be d263 89be
00000360: 7b05 9fbe 6288 5ebe c2e5 d7bd 0050 6c3c
00000370: e870 563d c0c7 91be 103b 043d f4b7 843d
00000380: 0011 a53b f7c5 96be 51be 47be 0eef 4cbe
00000390: ed83 883e 4236 3c3e cd38 313b abf7 663e
000003a0: aca7 bd3d ff5a 313e e228 febd 1672 783e
000003b0: f43c 063e 02a8 fa3c 8aa9 2b3e 5ca8 013e
000003c0: f0df 483d ec57 fabd 0e33 4f3e 3ab4 483e
000003d0: 300e 8a3c 38e1 7cbe 68c3 9ebe 1347 75be
000003e0: e832 5c3d d4fe 96bd cbd3 14be 0ad3 6f3b
000003f0: 4e41 613e 8651 033d f2fa 1a3e e6fd 1f3e

hd_layer.bias f4 [30]
0.18545821 -0.07780871 -0.23970994 -0.22032632 -0.31203273 -0.22232594 0.27040818 -0.12714176
-0.14110227 -0.028837452 -0.23046938 -0.13265492 0.25977746 -0.015330255 0.19844212 -0.113825485
0.28766745 -0.30444595 0.23812398 -0.1329551 0.2957218 -0.25751382 0.18340439 -0.06617393
0.16643801 -0.089752495 -0.048089106 -0.23253492 -0.16755739 -0.15614489
00000000: c2e8 3d3e 2c5a 9fbd 8676 75be 399d 61be
00000010: c1c2 9fbe 69a9 63be f172 8a3e 7331 02be
00000020: 1d7d 10be 853c ecbc 2a00 6cbe b1d6 07be
00000030: 8d01 853e c02b 7bbc 6934 4b3e 561d e9bd
00000040: 2649 933e 57e0 9bbe c6d6 733e 6225 08be
00000050: d968 973e dad8 83be 5cce 3b3e 3386 87bd
00000060: ba6e 2a3e 28d0 b7bd 15f9 44bd a21d 6ebe
00000070: 2a94 2bbe 72e4 1fbe

out_layer.weight f4 [1, 30]
-0.15495239 0.11729881 -0.13943581 0.12279248 -0.17741752 -0.006090477 0.01870941 0.0675925
0.073383 0.076662414 -0.15204017 0.08338685 -0.12655394 0.17221108 0.0057417294 0.15073645
0.15067297 0.16153967 -0.06351045 0.12117517 -0.06548982 -0.042092726 0.08808231 0.05083786
-0.16233969 -0.06830157 0.042201824 -0.0420762 0.008031771 0.08298164
00000000: d7ab 1ebe 5c3a f03d 43c8 0ebe a07a fb3d
00000010: f0ac 35be a092 c7bb 7a44 993c f06d 8a3d
00000020: d449 963d 2f01 9d3d 6bb0 1bbe bac6 aa3d
00000030: 5b97 01be 1a58 303e 1e25 bc3b a85a 1a3e
00000040: 044a 1a3e a86a 253e c411 82bd b02a f83d
00000050: 871f 86bd 6c69 2cbd 8064 b43d 5c3b 503d
00000060: 603c 26be b2e1 8bbd d2db 2c3d 1858 2cbd
00000070: b097 033c 47f2 a93d
