Torch_DL/models/iris/model_train_wbs_0_-0.2504422664642334.pth (torch, 4660 bytes, 5 tensors)

in_layer.weight f4 [10, 3]
000000 ce 07 2f 3a 6e 59 ca be bc 21 75 3e f6 f4 e6 be
       0.0006676883 -0.39521354 0.2393865 -0.45108765
000010 3e c3 6c be 00 1c e2 be f8 7c 98 3d e1 74 03 bf
       -0.23121354 -0.44161987 0.07445711 -0.5135022
000020 c9 66 d6 be 2a 09 0d 3e 73 22 ae 3d 4e 52 c8 3e
       -0.41875294 0.13773027 0.085026644 0.39125293
000030 6a 57 2d be 20 5d 22 3d ab 72 b2 be 3a 87 e1 3d
       -0.16927877 0.039639592 -0.3485311 0.110121205
000040 02 6a 00 3f 13 85 c5 3e 61 d7 e5 be d0 39 01 bf
       0.50161755 0.3857809 -0.44890884 -0.5047884
000050 d8 4a ef 3e f1 b8 be be 5e 4d be be 20 04 44 be
       0.4673679 -0.37250474 -0.371684 -0.19142199
000060 7b ee 46 3d f3 0b b3 3e 65 46 05 3f 13 5d ea be
       0.048567276 0.34970054 0.5206054 -0.45774135
000070 e2 f8 07 bf a4 a3 94 be
       -0.5311414 -0.29031098

in_layer.bias f4 [10]
000000 d1 ae 01 bf a0 e6 db 3c 88 5e 0b bf 8d 04 15 3f
       -0.50657374 0.026843369 -0.5444112 0.5821007
000010 68 a4 05 be b0 c0 19 be 00 84 7f 3a f0 16 a8 3e
       -0.13050997 -0.1501491 0.00097471476 0.3283
000020 92 e7 0e 3f e0 66 e5 3e
       0.558221 0.4480505

hd_layer.weight f4 [30, 10]
000000 1e 4b 77 be 44 4e 29 3e 80 f0 d2 3c 3c 89 c4 3d
       -0.24149749 0.16533762 0.025749445 0.09596488
000010 ce 20 b1 bd 99 24 42 be c0 76 17 bd 45 c5 83 3e
       -0.08648835 -0.18959273 -0.036978483 0.25736442
000020 00 37 fb bb ce 0a 45 3e ef 96 89 be ef 7a 95 3e
       -0.0076664686 0.19242403 -0.26872966 0.29195353
000030 10 78 81 3d 20 1c 93 3d 15 f8 60 be c1 f3 02 be
       0.06321728 0.07183099 -0.21969636 -0.12788297
000040 7c 87 c4 3d b0 11 3e 3d 28 08 2d 3e c0 1f 3c be
       0.09596154 0.046403587 0.16897643 -0.18371487
000050 1d f1 42 3e e3 8c 0d be 83 d7 96 3e 8d ac bd 3d
       0.1903729 -0.13823275 0.29461297 0.09261427
000060 02 d7 18 be 12 df a4 3d 48 63 c5 bd dc a3 12 3e
       -0.14925769 0.0805036 -0.09638077 0.1432032
000070 2e b5 32 3e e6 84 3a 3e 8d a2 24 be 10 eb a1 bc
       0.17451927 0.18214759 -0.16077633 -0.019765407
000080 a0 fd 48 3d bd 15 98 be b0 fc 1e 3e 33 e3 9c 3e
       0.04907 -0.29704085 0.1552608 0.3064209
000090 23 68 9e 3e 55 f6 2c be aa b2 f8 3d 62 fb 63 be
       0.30938825 -0.16890843 0.121434525 -0.22263864
0000a0 e9 da 6d be 62 06 4b 3e 40 fc a6 bb 1d 6f 49 be
       -0.23228039 0.19826654 -0.0050959885 -0.19671293
0000b0 bd 42 8d 3e 08 e0 47 bd 88 c4 2c 3e d8 13 0d 3d
       0.2758998 -0.048797637 0.16871846 0.034442753
0000c0 92 e2 03 be b0 61 c2 bc 86 80 37 3e 28 34 67 3d
       -0.12879398 -0.023728222 0.17920122 0.056446224
0000d0 b2 9b 6f 3e c5 a2 8d 3e 02 d1 b5 bd 14 8f 5b bc
       0.23399237 0.27663246 -0.08877756 -0.013400812
0000e0 b0 d0 c0 bc 9e 68 cf bd 1f d8 98 bd ea 70 0c be
       -0.02353701 -0.10127376 -0.07463097 -0.13714948
0000f0 16 8e c8 bd ae 28 59 3e 26 e9 45 3e f8 8d 4a bd
       -0.09792726 0.21206924 0.1932722 -0.0494518
000100 f0 4c 91 be c8 d3 a8 3d b8 ce 91 be ae 44 0a 3e
       -0.2837901 0.08243519 -0.28478026 0.13502762
000110 cc d7 e0 bd 44 8c b7 3d a3 01 94 3e 40 67 af 3c
       -0.1097866 0.089623004 0.289075 0.021411538
000120 2c 8f 71 be 0e a2 97 be 22 0d 93 bd 1b 0b 76 be
       -0.23589772 -0.29615825 -0.07180239 -0.24027674
000130 b2 1c 31 3e 85 5f 0f be 9f c2 40 be e0 f4 3c bc
       0.17296103 -0.14001282 -0.18824242 -0.011532992
000140 03 8c 50 be fb 25 88 be 84 13 2a 3e 4a 02 28 3e
       -0.2036591 -0.26591477 0.16609007 0.16407123
000150 b2 de 26 3e 9c d8 99 bd 68 1c 4a bd 04 e2 82 be
       0.16295889 -0.07512018 -0.049343497 -0.2556306
000160 90 1b 9f bd 97 cd 38 be 2a e6 49 be 74 b9 bf bd
       -0.07768929 -0.18047176 -0.19716707 -0.09361544
000170 94 81 10 3e 27 be 9e be ac 6e de 3d 85 26 80 3e
       0.1411193 -0.3100445 0.10860953 0.25029388
000180 d2 7d 0c be e1 9e 95 be 8b 62 87 be ac 66 35 3e
       -0.13719872 -0.29222777 -0.2644237 0.17714947
000190 4a 69 9a be 2a 3c 91 be aa 59 56 3e 02 26 58 be
       -0.30158454 -0.28366214 0.20932642 -0.21108249
0001a0 c0 4b 2a 3d bc 05 89 3e ad dd 04 be 1e 3a 0e be
       0.041576147 0.26762187 -0.12975188 -0.13889357
0001b0 f8 b4 47 bd 1c 28 2a be c0 63 8e 3d 55 84 06 be
       -0.04875657 -0.16616863 0.069526196 -0.13136418
0001c0 ab c2 a1 be e1 94 52 be b8 12 04 3d d4 30 f6 3d
       -0.31593832 -0.20564605 0.032244414 0.12021032
0001d0 e2 0d e9 bd 93 df 89 be 24 9e 82 bd 28 d9 3e 3d
       -0.11379601 -0.26928386 -0.06377819 0.046593815
0001e0 82 4b 50 bd ef 43 9b be 6c 58 94 bd a9 49 62 3e
       -0.05085326 -0.30325267 -0.07243428 0.22098412
0001f0 a6 1a 7f be 5d d3 44 3d 30 22 c1 3d da 4c 71 be
       -0.2491251 0.048053134 0.09430349 -0.23564473
000200 2a d0 9d bd e8 89 a6 3d 6c 35 73 3d 80 4d 7b bd
       -0.0770572 0.08131772 0.05937712 -0.061353207
000210 22 dd 2e be 30 33 80 3d 24 2c 2c 3e db 83 37 3e
       -0.17076543 0.06259763 0.16813713 0.17921393
000220 00 10 da 38 a6 90 81 be a1 54 d4 3d 70 73 fe 3d
       0.0001039803 -0.2530567 0.10367704 0.12424362
000230 ba e5 e7 3c a8 0a 72 3d 8d 32 96 3e f9 83 db bd
       0.028307784 0.059092194 0.29335442 -0.10718531
000240 6a dd e4 bd f1 24 23 3d 30 6e c5 bd ba 85 93 be
       -0.11175044 0.039830152 -0.09640157 -0.28812963
000250 f5 ae 8d 3e c0 63 49 bd 3a 22 4a 3e 10 bb 22 3e
       0.27672544 -0.049167395 0.19739619 0.15891671
000260 10 b4 1f 3d 1c c2 dc bd 00 4d 63 bb 62 a0 6a 3e
       0.03899008 -0.10779211 -0.0034683347 0.22912744
000270 4a dc cd bd 5f 6b 6d be b9 6b 83 be 8f 6a 24 be
       -0.100517824 -0.2318549 -0.25668123 -0.16056274
000280 42 26 e1 bd 86 7f 2b 3e 36 9b 70 be 0b 05 67 be
       -0.10993625 0.16747865 -0.23496708 -0.22560517
000290 82 6e 49 be cb f8 39 3e a8 b1 84 3d 25 ad 14 be
       -0.19671062 0.18161313 0.06479198 -0.14519174
0002a0 f5 8e 00 be eb 1b 80 be d6 12 26 be b0 60 76 3d
       -0.12554534 -0.250213 -0.16218123 0.060150802
0002b0 e4 e3 0d 3e c7 16 04 3e c0 a0 29 bd 7d fa 03 3e
       0.13856465 0.12899314 -0.04141307 0.12888522
0002c0 20 5b 44 bd b0 9c 27 be c9 52 66 be 72 b2 28 3e
       -0.047938466 -0.16368365 -0.22492518 0.16474321
0002d0 08 62 35 3e c4 e6 8a 3d 50 5f e4 3d 1e 2d dd bd
       0.17713177 0.06782296 0.11150992 -0.10799621
0002e0 80 cf a5 bc 70 8d 95 bc e5 d8 88 3e 4e 43 45 3e
       -0.020240545 -0.01825592 0.26727977 0.19263956
0002f0 36 ab c7 bd 45 bd 82 3e ce 8f 75 be b8 a4 24 bd
       -0.09749453 0.25535026 -0.23980638 -0.04019615
000300 3a 5d 2f be 64 83 34 be e0 44 4e 3c 92 2d 60 be
       -0.17125407 -0.17628247 0.012589663 -0.21892384
000310 7d 61 81 3e a7 4b 95 be 3c 9b 61 be 12 d3 c3 bd
       0.2526969 -0.2915928 -0.22031873 -0.09561743
000320 3c 6c 7c be 80 95 48 bc 98 84 15 be 93 b9 a0 3e
       -0.24650663 -0.012242675 -0.14601362 0.31391582
000330 62 4a 53 be fc a1 00 be 8d 4e 9e be 76 d2 80 be
       -0.20633844 -0.12561792 -0.30919304 -0.2516057
000340 a7 02 90 be c0 44 30 3d 60 c5 f0 3c 62 7a 59 3e
       -0.28127024 0.043034315 0.02939099 0.21238092
000350 db 8c 18 be 84 97 cf 3d fe 73 4e 3e eb 48 98 be
       -0.14897482 0.10136321 0.20161435 -0.29743132
000360 40 f3 d3 3b 88 76 c8 bd a2 5e 44 3e 3c 67 fb 3d
       0.0064682066 -0.09788233 0.19176725 0.1227555
000370 2b bc 99 be 60 b0 93 3c 0b 11 98 3e 0d a9 a9 3d
       -0.30026373 0.018028438 0.29700503 0.08284197
000380 04 4c 85 3d ba c9 b2 bd 47 fb 30 be f6 8e 52 be
       0.065086395 -0.087298825 -0.17283355 -0.20562348
000390 ce 5c 65 3e b8 ef f4 bd c4 44 77 3e 87 c9 98 3e
       0.22398683 -0.11959785 0.24147326 0.29841253
0003a0 65 c3 97 3e 25 a4 73 3e e0 82 37 3e 60 ee 02 3e
       0.29641262 0.23793085 0.17921019 0.12786245
0003b0 f8 a3 06 3e 79 26 9b 3e 03 6e 75 be f1 c2 95 3e
       0.13148487 0.3030279 -0.23967747 0.2925029
0003c0 40 72 ff 3c 97 0a 18 be b4 39 2e be 54 cc ef bd
       0.031182408 -0.1484779 -0.170142 -0.11708894
0003d0 6b 53 10 be 3c 91 1a be 73 9d 87 be 76 da 67 be
       -0.14094321 -0.15094465 -0.26487312 -0.2264193
0003e0 d6 53 a3 bd 64 93 c0 3d 4a ba 7e 3e 58 68 3e bd
       -0.07974975 0.094031125 0.24875751 -0.04648623
0003f0 2a 97 0f 3e a0 a4 07 3c 2a 25 ef bd 3a af f8 bd
       0.14022508 0.008278996 -0.1167701 -0.12142797

hd_layer.bias f4 [30]
000000 1f 55 93 be c6 05 e0 3d fd aa 8f 3e 61 6f e6 3c
       -0.2877588 0.10938601 0.2806014 0.028129281
000010 e6 21 13 3e 47 29 97 bd f4 f5 5f be 40 82 0a 3c
       0.143684 -0.0738092 -0.21871167 0.008453906
000020 00 03 85 bc 94 e5 ff 3d 84 01 89 3d 57 df 20 be
       -0.016236782 0.124949604 0.06689742 -0.15710197
000030 cb e6 9d 3c c6 68 47 3e 7f c0 d1 bc 31 98 9d be
       0.01927509 0.19473562 -0.025604485 -0.30780175
000040 42 0e a3 3e 82 37 ca bc 59 e7 85 3e b2 39 79 3e
       0.31846815 -0.024684671 0.26153067 0.24338415
000050 8e 18 03 3e fa a7 7d be 99 86 96 bd 95 f9 d9 bd
       0.12802336 -0.24771109 -0.07349891 -0.10643307
000060 a0 74 2a bd 2a 7e dc bd 6d 1d e4 3d bc 8b 75 be
       -0.04161513 -0.107662514 0.11138425 -0.23979086
000070 03 9b d5 bd 11 fb 9f 3e
       -0.10429957 0.31246236

out_layer.weight f4 [1, 30]
000000 30 46 a7 3d 80 30 38 b9 ff a6 d2 3d 58 d2 52 bd
       0.08167684 -0.00017565675 0.10285758 -0.05147013
000010 80 4c 38 bd 5b b5 07 be ac 10 4f 3d d2 2a 0d 3e
       -0.04499483 -0.13252775 0.05055301 0.13785866
000020 cd 2d 30 be d1 58 a4 bd aa 3b a4 bd 1a dd 02 3e
       -0.17204972 -0.08024753 -0.080191925 0.12779656
000030 9b ab 35 bd 64 b4 0a 3d 8f ea 15 3d 80 54 9c ba
       -0.04435311 0.03386344 0.036600646 -0.0011927038
000040 6a 7a ea bd ae 88 17 3d ce 7d 23 3e 9e 2a a2 bd
       -0.1144913 0.036995582 0.1596596 -0.07918285
000050 ec 9a 18 3e 68 1a fc bc f2 22 06 3e ef b3 1a 3d
       0.14902848 -0.03077431 0.13099268 0.037769254
000060 a0 20 82 3b 38 dd 29 bd d3 ee ec bd a2 8e c9 bd
       0.0039711744 -0.041470736 -0.115689896 -0.09841658
000070 51 89 3a 3e 2d 4d 0f 3e
       0.18216445 0.13994284
