Torch_DL/models/iris/model_train_wbs_0_0.7318356037139893.pth (torch, 4650 bytes, 5 tensors)

in_layer.weight f4 [10, 3]
000000 cf 77 1a be e7 7b c4 be de 27 b5 3e 4f 74 89 3e
       -0.15084766 -0.3837578 0.3538198 0.2684655
000010 96 ba 79 3e d9 33 bf 3e 7c 5f a5 3e 7c 9b c7 be
       0.24387583 0.37344244 0.3229941 -0.38985813
000020 83 a7 ef 3e 55 f8 69 3e 0f 8c c9 3d 92 8d 2f 3e
       0.4680749 0.22848637 0.09841167 0.17143849
000030 99 9d 7b 3d 8b 0e d4 3e 5c 73 13 3f ea af 2a 3e
       0.061429594 0.41417345 0.575979 0.16668668
000040 31 de f6 3e 43 86 a7 bd e0 3c d5 be 4a 06 d6 be
       0.48216394 -0.08179905 -0.41648006 -0.41801673
000050 10 c0 e4 3e d7 c2 d3 3e a9 91 8e be 23 d3 c2 3e
       0.44677782 0.41359589 -0.27845505 0.3805171
000060 6a 87 e2 be 9e bf 21 be 18 86 ef bd 2c e6 02 bf
       -0.44243938 -0.15795752 -0.11695498 -0.51132464
000070 2f c8 0a bf 80 c0 50 3d
       -0.54211706 0.050964832

in_layer.bias f4 [10]
000000 24 11 5c be 70 5e eb be e3 78 8f be 3e c9 14 bf
       -0.21490914 -0.45970488 -0.28021917 -0.5811957
000010 11 89 56 3e e2 c3 1b bc 2c 2d 27 be 2b 4d 9e 3e
       0.20950724 -0.009507151 -0.16325825 0.3091825
000020 86 e2 6e be 80 4f ca bc
       -0.233286 -0.024696112

hd_layer.weight f4 [30, 10]
000000 20 41 2e be a1 b8 89 3e 8b 62 9b 3d 49 9c 38 3d
       -0.1701703 0.26898673 0.07587155 0.04507092
000010 76 15 45 3e e9 af cb bd d3 6e 89 be 12 94 3b 3e
       0.19246468 -0.099456616 -0.26842365 0.18318203
000020 d7 11 86 3e 44 5f 4a be 86 c6 24 be a8 4c 35 3e
       0.26185486 -0.19762903 -0.16091356 0.17705023
000030 03 f9 24 3e 0b ca 34 3e e7 15 af 3d 9d 26 a4 bd
       0.16110615 0.17655198 0.085490994 -0.080151774
000040 52 96 6b 3e d4 f7 f2 bd 60 d2 00 be c2 2e ea bd
       0.23006561 -0.11863676 -0.12580252 -0.114346996
000050 c0 43 8a bd b7 69 67 3d 08 64 ed bd ca 60 15 3e
       -0.067512035 0.056497302 -0.11591345 0.14587703
000060 c4 9e 8b 3e 95 29 d2 3c 06 16 14 3e 04 4d 2c 3d
       0.27269566 0.025654593 0.14461526 0.042065635
000070 62 d7 71 3e c0 f2 7d 3d 04 bd 98 be 60 17 2a 3d
       0.23617318 0.061999083 -0.29831707 0.0415262
000080 90 01 c2 3c e8 04 9f 3d 6e 46 d3 bd aa b9 f5 bd
       0.023682386 0.07764608 -0.10316168 -0.11998303
000090 3e d4 51 3e 50 f8 7b 3d 40 69 0f bc 03 3c 8f 3e
       0.2049112 0.061516106 -0.008753121 0.27975473
0000a0 b5 06 a0 3e 74 e5 dc bd 20 67 28 3e a8 a9 12 3e
       0.31255117 -0.10785952 0.16445589 0.14322531
0000b0 04 aa 94 be 28 87 27 be 94 94 65 be 54 01 3d be
       -0.29035962 -0.16360152 -0.2241996 -0.18457538
0000c0 a6 a5 10 3e 74 bc 26 be 5e 1f 7f 3e 2c 47 95 3d
       0.1412569 -0.16282827 0.2491431 0.072889656
0000d0 10 00 25 be 52 72 77 be 4a f1 87 be 0f e0 a1 3e
       -0.16113305 -0.24164703 -0.26551276 0.31616256
0000e0 bd 73 8e 3e e0 5f 8b be 44 01 1b 3e e9 ea 3d be
       0.27822676 -0.27221584 0.15137202 -0.18546642
0000f0 70 70 b4 3c e9 27 88 be c0 b4 e5 3d ba ba dd bd
       0.02202627 -0.2659295 0.11216116 -0.10826631
000100 80 0f 50 3d 1e 13 2a 3e df f8 36 be 89 5a 57 be
       0.050796032 0.16608855 -0.17868374 -0.2103063
000110 9a ac 8a bd c6 a5 58 be 90 15 9a be c9 97 5d 3e
       -0.067712024 -0.21156988 -0.30094576 0.21639933
000120 b9 56 41 be 35 9c 9d 3e b4 7b d1 bc 32 6f 50 3e
       -0.18880738 0.3078324 -0.025571682 0.20354918
000130 fe ca 3c 3e e8 a3 4b be e0 80 22 bd c0 d2 0f bc
       0.1843681 -0.19886744 -0.039673686 -0.008778274
000140 fc 0e e2 3d 6d fe 9d be d8 32 e7 3d 32 9f 2d 3e
       0.11038014 -0.30858174 0.112889946 0.1695526
000150 dc 87 36 be e4 0e a8 3d 3c 9b d2 bd f0 97 49 3d
       -0.17825264 0.08205965 -0.10283515 0.049217165
000160 75 61 1c be cf b6 82 3e d5 d0 06 be 36 e0 39 be
       -0.15271552 0.25530097 -0.131656 -0.18151936
000170 76 27 9a 3e 99 a4 93 3e e2 02 92 bd 22 38 82 3e
       0.3010823 0.28836516 -0.07129456 0.2543345
000180 18 8e f3 bd 3f a5 81 be c0 a6 a3 bc 8c 3b 71 be
       -0.118923366 -0.25321385 -0.019976974 -0.23557872
000190 56 48 d3 3d a2 4e ec 3d 38 47 8d 3e fd 1b b4 3d
       0.10316531 0.115384355 0.27593398 0.08794401
0001a0 68 7a 8e 3d 4f 6f be bd bc d9 dd 3d 13 01 9c 3e
       0.06956941 -0.09298574 0.10832545 0.3046957
0001b0 0c 99 c0 3d 80 26 02 3e 45 d6 95 be 1c 09 19 3e
       0.094041914 0.12709999 -0.29265037 0.14944881
0001c0 b8 14 a9 3d 5c c3 ba 3d ca f0 04 be 7c a1 11 3e
       0.08255905 0.09119293 -0.12982479 0.14221758
0001d0 5e 8d 49 3e 22 c0 48 be 4e 75 1f 3e 48 d0 5c 3d
       0.19682834 -0.19604543 0.15572092 0.05390957
0001e0 3a 10 75 3e 9e 1d 19 3e 8b c4 05 be 92 ca 2a be
       0.23931971 0.14952704 -0.13063256 -0.16678837
0001f0 2e db 7f 3e b5 2e 20 be a2 c2 bd bd 32 c7 7b be
       0.24985954 -0.15642817 -0.09265639 -0.24587706
000200 86 4f 47 3e c2 cd 38 3e d2 09 b2 bc 11 69 55 3e
       0.1946393 0.1804724 -0.021733198 0.20840861
000210 df 1b 55 3e da 0b 86 3e 4e 8f 2e 3e 63 10 44 3e
       0.20811413 0.26180917 0.17046854 0.19146876
000220 e6 43 9a be 3a b4 93 be 2a ae de bd 6c fd e1 3d
       -0.30129927 -0.2884844 -0.10873063 0.110346645
000230 ea 6e 75 3e bb 6e 96 3e be 78 80 be c5 e8 2f 3e
       0.23968092 0.29381356 -0.2509212 0.17178638
000240 fe cc cc 3d 24 9a b3 3d ca 66 51 3e 54 04 8e be
       0.10000037 0.08769634 0.20449367 -0.27737677
000250 26 3e 8d be c0 2b 90 3d b9 1f 37 3e e3 f0 81 3e
       -0.27586478 0.07039595 0.17883195 0.25379094
000260 05 04 5e be a2 c1 93 bd d0 69 d0 3d f6 d5 ca 3d
       -0.21681221 -0.07214667 0.10176432 0.09904091
000270 5e 10 9c be 09 1f 55 3e a9 b8 83 be 28 25 5c bd
       -0.30481237 0.2081262 -0.25726822 -0.053746372
000280 84 cb 32 3e 78 c7 3f bd 7e c6 53 be b2 8d 3d be
       0.17460448 -0.046821088 -0.20681188 -0.18511084
000290 06 75 26 be 61 b5 8c 3e b8 26 56 bd 2c 65 e1 bd
       -0.16255578 0.2748213 -0.05228302 -0.11005625
0002a0 80 d0 da 3d 32 25 4d 3e 42 46 1d 3e d5 34 37 3c
       0.106842995 0.2003372 0.15358832 0.01118203
0002b0 78 ce 17 3e 77 91 4e bd a7 77 b3 3d 60 83 e8 bd
       0.14824855 -0.050431695 0.08763056 -0.11353183
0002c0 98 62 43 be e9 7f 77 3e a8 e2 1f bd 4a 71 24 be
       -0.1908058 0.24169888 -0.039034516 -0.16058841
0002d0 5a c1 54 3e 97 82 08 bc 76 f5 67 3e ec 0d 8f bd
       0.20776883 -0.008331916 0.2265223 -0.06985077
0002e0 24 aa 55 3e 28 d9 81 3c 24 53 23 be 4a 06 f9 bd
       0.20865685 0.015850618 -0.15949684 -0.12159403
0002f0 cd eb 83 be 52 86 b2 bd d0 d5 63 3d dc 13 bb 3d
       -0.2576584 -0.08717026 0.05562383 0.09134647
000300 7e 5c 02 3e 5c bb 82 be a8 d6 6c 3d 08 c0 5a bd
       0.12730595 -0.2553357 0.0578219 -0.05340579
000310 be a0 94 be 2a b5 91 be 1c da f0 bd 73 bf 96 be
       -0.29028887 -0.2845853 -0.11760351 -0.2944294
000320 cb 09 fb 3d 68 7f 33 3e b5 30 ab 3e cd b0 60 3d
       0.12257727 0.1752907 0.33435598 0.05485611
000330 3b ba 30 be 34 3f 57 bd 0e 34 90 bd 20 5d 58 3e
       -0.17258541 -0.05255051 -0.07041179 0.21129274
000340 5a 3a 8f bd 95 ae 86 3e e2 0a 0c 3e 3e 63 ec 3d
       -0.069935516 0.2630507 0.13676026 0.115423664
000350 ac 24 9f 3e 8a 3b 58 3e a6 a9 0c 3e a7 c5 50 be
       0.31082666 0.21116462 0.1373659 -0.20387898
000360 ba 6a 4b be 54 b5 80 be 70 da d6 bc 8f a9 91 be
       -0.19864932 -0.25138342 -0.026227206 -0.28449675
000370 fc 45 8a bd 80 45 10 bd a1 4e 9b 3e 90 16 54 3d
       -0.0675163 -0.03522253 0.30333427 0.05177933
000380 b0 76 9b 3d f6 1c 7c be ec 4d 9a 3d c9 b3 36 be
       0.07590997 -0.24620423 0.07534394 -0.1784202
000390 12 42 c1 bd 71 c9 a0 be 86 57 8e be 53 28 8c 3e
       -0.0943643 -0.31403688 -0.2780115 0.27374515
0003a0 35 16 25 be 57 20 c5 bd 60 b3 a1 3e c6 4e 68 3e
       -0.16121753 -0.09625309 0.31582165 0.226863
0003b0 40 a3 ff bc 3d 75 85 bd 68 de f9 3d b4 a7 97 be
       -0.031205773 -0.06516502 0.12200624 -0.29620135
0003c0 e0 74 2a bc af d5 16 be 9a ba 9c bd 53 e5 89 3e
       -0.010403842 -0.14729951 -0.07652779 0.26932773
0003d0 92 14 60 3e 95 54 39 be 30 77 2a bd c8 6b 25 be
       0.21882847 -0.18098672 -0.041617572 -0.16154397
0003e0 88 40 9b be a8 fc ff 3d ea 61 89 be 8e 0e 34 3e
       -0.3032267 0.12499362 -0.26832515 0.17583677
0003f0 cb fc a5 bd 25 49 82 bd e6 67 2b 3d 62 b9 6b 3e
       -0.08104857 -0.063616075 0.041847132 0.23019937

hd_layer.bias f4 [30]
000000 bf b6 84 3e 1a e5 23 3d f5 89 12 be da 2e 14 be
       0.25920674 0.04001341 -0.14310439 -0.14470997
000010 70 ad 38 3d ae 15 02 3e 8e de 24 be 4f ea 95 3d
       0.045087278 0.12703583 -0.16100523 0.073200814
000020 5c a4 fe bd 57 fb 86 3e b6 63 86 3d fc 1f a0 be
       -0.12433693 0.26363632 0.06561987 -0.31274402
000030 72 7f 9f bd 54 e3 36 3e 5e 2c 16 be d3 fd 5f 3e
       -0.0778798 0.17860156 -0.14665362 0.2187417
000040 40 3f 30 be 26 af 1b 3e 57 f3 00 3e b0 46 7b be
       -0.17211628 0.15203533 0.12592827 -0.24538684
000050 e1 3e 9a be 0b c2 d9 bd 7c 96 9c be 72 8b e9 3c
       -0.30126098 -0.10632714 -0.3058356 0.028508876
000060 c3 88 86 be 69 8c 9b 3e a5 0c 72 3e d0 46 df 3c
       -0.26276216 0.30380562 0.23637636 0.027255446
000070 46 80 57 3e b5 eb 70 3e
       0.21045026 0.23527415

out_layer.weight f4 [1, 30]
000000 4b 9b f2 3c 7f 99 5e 3d 64 90 b8 3b 2a 1c 75 bd
       0.029615065 0.054345604 0.005632447 -0.059841312
000010 80 dd 95 ba 98 07 eb 3d 72 dd 0f 3e d2 f4 07 3e
       -0.001143381 0.11476058 0.14049318 0.13276985
000020 e4 8f 62 bd c1 cc cc bd 58 a3 2a 3e c4 fd 8a 3d
       -0.055313006 -0.09999991 0.16663873 0.06786683
000030 f8 bd 14 3d 84 e4 17 3e 4a a1 b7 bd e3 d8 b1 3b
       0.03631398 0.14833266 -0.0896631 0.0054274662
000040 44 08 95 3d 58 38 e2 3d eb 6d 03 be 10 51 5a bc
       0.07276967 0.11045903 -0.12834899 -0.013324991
000050 09 07 d5 3d 37 81 03 3e 50 aa 1d 3d af 47 e7 3d
       0.104017325 0.1284226 0.0384925 0.112929694
000060 ce f3 1a be 68 29 51 bd 1c d1 ae 3c c8 26 de 3d
       -0.15132067 -0.05106488 0.021339945 0.10847241
000070 d0 57 b2 3d 9d a5 98 bd
       0.08708155 -0.07453463
