Torch_DL/models/iris/model_train_wbs_0_0.31669318675994873.pth (torch, 4660 bytes, 5 tensors)

in_layer.weight f4 [10, 3]
00000000: 2bc3 913e 4bf6 e53c fe67 f8bd 8c56 0abf
00000010: cc73 b0be 1ee6 babe 7835 063e 290e 3ebe
00000020: 3c25 dd3e 00d7 823b 8c3a a4be c2a2 00be
00000030: fa55 b2bb ba10 563c 3b75 a73e 11d6 053f
00000040: 8a26 9fbd d869 c83c 6005 0a3f 85e4 bdbe
00000050: 9e40 de3e df27 ae3e 344d 973e e525 f2be
00000060: cf76 0d3f 89ec c6be 4bcd 323e 724e f83e
00000070: b24e e5be ce40 d93e
0.28469214 0.028071543 -0.1212921 -0.5403831 -0.34463346 -0.3650369 0.13106334 -0.18560089
0.4319247 0.003992915 -0.32075918 -0.12562087 -0.005442378 0.013065511 0.32706627 0.52279764
-0.077710226 0.024464533 0.5391445 -0.3708841 0.43408674 0.34014794 0.2955109 -0.47294536
0.5525941 -0.38852337 0.17461126 0.4849735 -0.44786602 0.42432255

in_layer.bias f4 [10]
00000000: dbff e3be 4020 98bd 5807 853d fc73 e03e
00000010: 0050 a2bd 70ae c7be 3286 fd3e 7b29 d83e
00000020: 9551 e93e d38d b0be
-0.4453114 -0.07428026 0.06495541 0.4383849 -0.07925415 -0.39000273 0.49516445 0.42219147
0.45570055 -0.34483203

hd_layer.weight f4 [30, 10]
00000000: d8ed d8bd b0b9 0a3d 8d7c 983e 002b 51bd
00000010: c108 2cbe 3439 c5bd f06b 61be b849 17be
00000020: c613 8cbd 6261 123e b3e6 843e a669 c9bd
00000030: 9651 263e 9ef2 a9bd c47f 883e 3025 653c
00000040: 33d8 79bd ca69 8fbe 29b0 233e 68e8 a3be
00000050: 59a9 37be 6cdf 02be e46a 163e 48fb 1a3e
00000060: 3e95 683e 9c96 1b3e 1635 68be 5286 86be
00000070: b6ad a5bd 0cbd 2bbe f481 0e3e 9385 61be
00000080: ef00 1abe a468 a6bd 7a0a bbbd 0074 613d
00000090: e064 b6bc 00ee f53b 8cfa 55be 8421 86be
000000a0: a2b4 14be acca bc3d 6c16 5e3e b867 273e
000000b0: 7644 ebbd 646d 7b3d 58d0 313e 4efb 593d
000000c0: 9d90 dd3d 4b11 8abe d0e0 ce3c 3362 09be
000000d0: 5fb3 973e 2029 6abe a786 83be 085b b23c
000000e0: 80d7 8e3e 56bf a3bb 39ee 703e 9cc0 67bc
000000f0: 9eb0 113e c4db 77be 823d 033e 0fa3 06be
00000100: 4444 9a3e d556 233d 4236 5ebe f3a6 76be
00000110: 3f69 003e 523a cb3d 1024 23bd 6ca7 1b3e
00000120: c4f2 6cbe ee7f 32be 0cc2 a1be e637 e5bc
00000130: 6283 843e 979f 32be 8f55 1abe 4760 1d3e
00000140: 8301 043d 41c0 833e 32fb 3ebd 14ab 193e
00000150: 8366 953e 054f cc3d 8c3d 403e 69d0 21be
00000160: b0b4 8b3e f30b 8dbe 2dcb 94be b819 923d
00000170: 65d9 043d 68d7 0bbd 3f7f 853c 8927 37be
00000180: 27b8 923e 37ad 4e3e 1339 6c3d a497 a1bd
00000190: 8812 80be f614 773e 373a 853e 7e8c 22be
000001a0: 61db 96be 1312 14be b972 63be 5f4c a0be
000001b0: f63e f6bd b035 213d 4b68 df3c b671 503e
000001c0: 9e2a efbd 884a 663d 7088 4dbe 102f ac3d
000001d0: 7830 76bc cb87 9d3e b04b 5ebd 61e8 983d
000001e0: 274e 06bd 0a7e 033e c089 0b3d 29e1 9dbe
000001f0: 08a1 703e c24d 9abd a1fe 38be 06e3 89be
00000200: d8cf 933e d326 113e 1835 163e c0a8 dbbd
00000210: aa7a fb3d 496d 0cbe 6229 b13d 85cb 4cbd
00000220: 73d1 c5bc 29d7 973e a954 a33e b84d 9ebd
00000230: 6361 3cbe 6e5c 93be d859 2b3d b28f 503e
00000240: b6a6 373e 3825 92be 3801 123d 107b 843c
00000250: c0be 473d 25ad 8dbe e694 f63c 54fa 323e
00000260: 40bd 64bd 5c1e 853d b364 44be d220 a0bd
00000270: f6a7 603e 5280 9c3e 43ed 903d 6f84 97bc
00000280: 15d2 1ebe 709a 763d 2b31 a53e 40b6 f93d
00000290: eeb9 bebd e761 27be 6850 553d 070a b7bd
000002a0: 8b65 98bb 11a2 8b3e 1b39 32be 84ec 6fbe
000002b0: 876e 2fbe 2e6e 6abe 3814 12bd d573 35be
000002c0: 7445 ba3d f8ae 593d 1af0 6abe c201 0a3e
000002d0: b6b6 713e ce40 7f3e 5050 353e 40a3 24bc
000002e0: 567a 643e 841d 813d 0b8f 9dbe a04b 913d
000002f0: 56f7 85be 6257 083e 806d ac3b 0fca 49be
00000300: 7c29 cb3d 71cf 57be 2ee9 333e 7e56 a13e
00000310: 3c45 723e 42ea 85be 842d a63e 89e1 113d
00000320: 624b 69bd 0067 0e3d fdc1 9fbe 468d 193e
00000330: 09ae 903e 272b 9a3d 4461 db3d a310 3cbe
00000340: 76b3 95bc 07a2 683d 9845 8bbe e1d3 42be
00000350: b489 3abe e0d6 54bc 8ecd c9bd 8025 89be
00000360: 22bf 88be 586d 403d ae1b 19be 4d4c 9a3e
00000370: 647d 0f3e 7437 173e e0c0 4bbd 947a 9ebd
00000380: e062 103e b89b 97bd 5c95 78be b876 86bd
00000390: 1596 23be 7e59 59be e08d c4bc 565d 75be
000003a0: c457 c93d 32a0 4fbe 9bde 9e3e 5028 a63d
000003b0: 2c0b 83be dd67 60be d6e5 aebd 88c5 9fbd
000003c0: f40a 673e dcd9 05be 53bc 96be d24f 6d3e
000003d0: bd7e a5bc 71dc 223e f8b3 2cbd 27a2 16be
000003e0: 08ed 8c3d 303c 44bd 9493 543e 7d3c 07be
000003f0: b5ee 85bc 0c6c 873d e4e0 493e 2d49 353e
-0.1059224 0.03386849 0.29782525 -0.0510664 -0.16800214 -0.09630051 -0.22013831 -0.14774215
-0.06839709 0.14294961 0.2595726 -0.09834604 0.1624206 -0.08298229 0.26659977 0.013985917
-0.0609972 -0.28010398 0.15985169 -0.3201325 -0.17935695 -0.12780541 0.14689213 0.15134919
0.22713181 0.15194172 -0.226765 -0.26274353 -0.08089773 -0.16771334 0.1391676 -0.22023611
-0.15039419 -0.08125427 -0.091328576 0.055042267 -0.022264898 0.0075051785 -0.20896357 -0.26197445
-0.14522031 0.09218344 0.21688241 0.1634816 -0.11487667 0.06138362 0.17364633 0.05321818
0.108185984 -0.26966318 0.025253683 -0.13416366 0.29629037 -0.2286725 -0.2568867 0.021771923
0.27898788 -0.0049971743 0.23528375 -0.014145043 0.1422753 -0.24204928 0.12816432 -0.1314814
0.30130208 0.03987773 -0.21700385 -0.24087124 0.12540148 0.09923233 -0.039829314 0.15200585
-0.23139483 -0.17431614 -0.3159336 -0.027980756 0.25881487 -0.17443691 -0.150717 0.15368758
0.032228004 0.25732616 -0.046626277 0.15006667 0.29179773 0.09976009 0.18773478 -0.15802158
0.2728629 -0.2754818 -0.2906126 0.07133812 0.032433886 -0.034140974 0.016296027 -0.17886175
0.28656122 0.20183264 0.057671618 -0.07890251 -0.25014138 0.2412909 0.26020977 -0.15873906
-0.29464248 -0.1446002 -0.22211732 -0.31308267 -0.120237276 0.03935784 0.02727141 0.20355877
-0.116780505 0.056223422 -0.20071578 0.08407414 -0.015026204 0.30767664 -0.0542714 0.07466198
-0.032789376 0.12841049 0.034066916 -0.30835846 0.23498929 -0.075343624 -0.18065883 -0.26931018
0.2886951 0.14174967 0.14668691 -0.10725546 0.12279256 -0.13713564 0.08650471 -0.04999878
-0.024147725 0.29656342 0.31900528 -0.077296674 -0.18396525 -0.28781456 0.04183373 0.20367315
0.17934689 -0.2854402 0.035645694 0.016171962 0.048765898 -0.2767116 0.030100297 0.17478305
-0.055844545 0.06499931 -0.19179039 -0.0781876 0.21939072 0.3056665 0.07076504 -0.018495766
-0.15509827 0.060205877 0.32264075 0.121929646 -0.09312807 -0.1634594 0.052078635 -0.089374594
-0.0046507767 0.27272084 -0.17404597 -0.23430067 -0.17132007 -0.22893593 -0.035663813 -0.17719968
0.090952784 0.05314538 -0.22943154 0.13477233 0.23604855 0.24927065 0.17706418 -0.010048687
0.22312292 0.06304458 -0.30773196 0.070945024 -0.26165265 0.13314584 0.005262077 -0.19705985
0.09920022 -0.21075226 0.1756942 0.315113 0.23659223 -0.26155287 0.324566 0.035615478
-0.056956656 0.034766197 -0.3120269 0.14995298 0.28257778 0.07527762 0.10711911 -0.18365721
-0.01827405 0.056795146 -0.27201533 -0.19026138 -0.18216592 -0.012990683 -0.098536596 -0.26786423
-0.26708323 0.04697928 -0.14951965 0.30136338 0.14012676 0.14767247 -0.049744487 -0.07738224
0.14100218 -0.07402748 -0.24275726 -0.065656126 -0.1597522 -0.21225545 -0.023993433 -0.23961386
0.09831193 -0.20275953 0.3102921 0.08113158 -0.2559446 -0.2191462 -0.085399315 -0.07801348
0.22562772 -0.13071388 -0.29440555 0.2317498 -0.020202035 0.15904404 -0.04216382 -0.14710294
0.068811476 -0.04790896 0.20759422 -0.13206668 -0.016349176 0.06612405 0.19714695 0.17703696

hd_layer.bias f4 [30]
00000000: b8de 053e 2921 e33c 9825 3a3d 126d 423e
00000010: 7a4c 90be e889 5ebe 859e 903e 1b74 0a3e
00000020: ab64 14be e885 3cbd 84fb de3d 3501 5b3e
00000030: d46b 06be 27ac 0f3e 7227 3f3e c69d a8bd
00000040: af30 8ebe 6a98 50be 181f 6ebd b395 053d
00000050: ebad 063e a829 ae3d eedf 473e e25c 7c3e
00000060: b41d 923d a40d 0bbe 54e7 8ebe 38b7 f73c
00000070: f1ce 993e bc09 20be
0.13073242 0.027725773 0.04544601 0.1898692 -0.28183347 -0.21732295 0.2824594 0.13520853
-0.14491527 -0.04602614 0.108878165 0.21387179 -0.1312707 0.14030515 0.18667391 -0.08233218
-0.27771518 -0.20370641 -0.058135122 0.032613467 0.13152282 0.08504039 0.19519016 0.24644807
0.07134572 -0.13579422 -0.27910864 0.030238733 0.30040696 -0.15628713

out_layer.weight f4 [1, 30]
00000000: 72f6 313e ee2a 62bb cc60 0e3d 26e0 c3bd
00000010: d007 6e3d 4d74 1f3e ef87 a13c cd80 31be
00000020: 825e 0bbe 5675 c2bd 604d 37bd c54e 3c3e
00000030: f1c1 2d3e 8e82 3c3c 80dd ecbb f08a 6fbd
00000040: 64bb 043e 507f 713d 72ef 2bbe 613a 0b3e
00000050: 81b5 04be 49c6 89bd e784 94bd 162e 353e
00000060: 700b a2bc 29d8 a0bc 11d7 b5bd e860 11be
00000070: 6f3b 6c3d 49cc 0cbe
0.17379168 -0.0034510451 0.03476028 -0.09564237 0.05811292 0.15571709 0.019718139 -0.1733429
-0.1361027 -0.09495036 -0.044751525 0.18389423 0.16968514 0.011505736 -0.0072285533 -0.05848211
0.12962109 0.058959305 -0.1679056 0.13596489 -0.12959863 -0.06727273 -0.072519116 0.17693362
-0.019780844 -0.019634323 -0.08878911 -0.14197123 0.057673868 -0.13749804
