Torch_DL/models/iris/model_train_wbs_0_0.695166826248169.pth (torch, 5728 bytes, 5 tensors)

weight f4 [10, 3]
-0.1494451 -0.38236493 0.3552255 0.2700551 0.24742037 0.36912763 0.32242164 -0.38733137
0.46051434 0.22912447 0.10107682 0.16716483 0.060451098 0.41501907 0.57117206 0.17013429
0.48553482 -0.078797266 -0.41648006 -0.41801673 0.44677782 0.41874224 -0.27214858 0.3769872
-0.44243938 -0.15795752 -0.11695498 -0.51132464 -0.54211706 0.050964832
00000000: 2308 19be 56c5 c3be 1ee0 b53e a944 8a3e
00000010: c45b 7d3e 4cfe bc3e 7314 a53e 4c50 c6be
00000020: 89c8 eb3e 9b9f 6a3e 5d01 cf3d 422d 2b3e
00000030: 929b 773d 617d d43e 5538 123f af37 2e3e
00000040: 0598 f83e 7660 a1bd e03c d5be 4a06 d6be
00000050: 10c0 e43e 6265 d63e 0f57 8bbe 7704 c13e
00000060: 6a87 e2be 9ebf 21be 1886 efbd 2ce6 02bf
00000070: 2fc8 0abf 80c0 503d

bias f4 [10]
-0.21351251 -0.45650887 -0.27818203 -0.578889 0.21014158 -0.0062686685 -0.16325825 0.31524727
-0.233286 -0.024696112
00000000: 06a3 5abe 88bb e9be e06d 8ebe 1232 14bf
00000010: 5b2f 573e 6769 cdbb 2c2d 27be 1768 a13e
00000020: 86e2 6ebe 804f cabc

weight f4 [30, 10]
-0.17152995 0.2685327 0.071022525 0.044453975 0.19178586 -0.095144704 -0.26842365 0.18196596
0.26185486 -0.19762903 -0.16229731 0.17655763 0.15621477 0.17589375 0.08477227 -0.07575898
0.23006561 -0.11989438 -0.12580252 -0.114346996 -0.068762735 0.056313295 -0.12055017 0.14554545
0.27229545 0.029507473 0.14461526 0.04113377 0.23617318 0.061999083 -0.29831707 0.0415262
0.023682386 0.07764608 -0.10316168 -0.11998303 0.2049112 0.061516106 -0.008753121 0.27975473
0.31255117 -0.10785952 0.16445589 0.14322531 -0.29035962 -0.16360152 -0.2241996 -0.18457538
0.1412569 -0.16282827 0.2491431 0.072889656 -0.16113305 -0.24164703 -0.26551276 0.31616256
0.27822676 -0.27221584 0.15137202 -0.18546642 0.02202627 -0.2659295 0.11216116 -0.10826631
0.050796032 0.16608855 -0.17868374 -0.2103063 -0.067712024 -0.21156988 -0.30209345 0.21599203
-0.19283547 0.3072875 -0.02616951 0.20742276 0.1843681 -0.19990122 -0.039673686 -0.008778274
0.11038014 -0.30858174 0.112889946 0.1695526 -0.17825264 0.08205965 -0.10283515 0.049217165
-0.15271552 0.25530097 -0.12852529 -0.18144208 0.3073303 0.28863534 -0.07095505 0.24940513
-0.118923366 -0.252192 -0.019976974 -0.23557872 0.10186933 0.11491038 0.27137104 0.08731452
0.068882875 -0.0887658 0.10832545 0.30351195 0.094041914 0.12709999 -0.29265037 0.14944881
0.08255905 0.09119293 -0.12982479 0.14221758 0.19682834 -0.19604543 0.15572092 0.05390957
0.23931971 0.14952704 -0.13063256 -0.16678837 0.24985954 -0.15642817 -0.09265639 -0.24587706
0.1946393 0.1804724 -0.022985484 0.20795773 0.20370066 0.2612079 0.16981113 0.19558644
-0.30129927 -0.28962216 -0.10873063 0.110346645 0.23968092 0.2940185 -0.24419133 0.17219025
0.10047549 0.08283326 0.20449367 -0.27615428 -0.27586478 0.07039595 0.17787111 0.25364095
-0.22018535 -0.072406135 0.10144817 0.10224798 -0.30481237 0.20742382 -0.25726822 -0.053746372
0.17460448 -0.046821088 -0.20681188 -0.18511084 -0.16255578 0.2748213 -0.05228302 -0.11005625
0.106842995 0.2003372 0.1522716 0.01070296 0.14360707 -0.051068723 0.08693568 -0.10926928
-0.1908058 0.24049692 -0.039034516 -0.16058841 0.20898266 -0.0078790905 0.23076692 -0.06925248
0.2093088 0.01180937 -0.15949684 -0.120484196 -0.2576584 -0.08717026 0.05562383 0.09134647
0.12730595 -0.2553357 0.0578219 -0.05340579 -0.29028887 -0.2845853 -0.11760351 -0.2944294
0.12117985 0.17477265 0.32944605 0.05417108 -0.17333 -0.04811279 -0.07041179 0.21000959
-0.069935516 0.2630507 0.13525921 0.10778878 0.3028796 0.2035076 0.12960406 -0.21079938
-0.19864932 -0.25880346 -0.026227206 -0.28449675 -0.0675163 -0.03522253 0.30333427 0.05177933
0.07590997 -0.24620423 0.07534394 -0.1784202 -0.0943643 -0.31403688 -0.2792346 0.27331093
-0.16553263 -0.0968342 0.3151849 0.23090968 -0.031205773 -0.066271365 0.12200624 -0.29620135
-0.010403842 -0.14729951 -0.07652779 0.26932773 0.21882847 -0.18098672 -0.041617572 -0.16154397
-0.3032267 0.12499362 -0.26661396 0.17651354 -0.0754171 -0.0627467 0.04277756 0.22521396
00000000: 8ca5 2fbe 1e7d 893e 4274 913d 5f15 363d
00000010: 8363 443e 3adb c2bd d36e 89be 4955 3a3e
00000020: d711 863e 445f 4abe 4431 26be 86cb 343e
00000030: c4f6 1f3e 7e1d 343e 159d ad3d 8627 9bbd
00000040: 5296 6b3e 2f8b f5bd 60d2 00be c22e eabd
00000050: 7ad3 8cbd c5a8 663d 02e3 f6bd de09 153e
00000060: 4f6a 8b3e a8b9 f13c 0616 143e e27b 283d
00000070: 62d7 713e c0f2 7d3d 04bd 98be 6017 2a3d
00000080: 9001 c23c e804 9f3d 6e46 d3bd aab9 f5bd
00000090: 3ed4 513e 50f8 7b3d 4069 0fbc 033c 8f3e
000000a0: b506 a03e 74e5 dcbd 2067 283e a8a9 123e
000000b0: 04aa 94be 2887 27be 9494 65be 5401 3dbe
000000c0: a6a5 103e 74bc 26be 5e1f 7f3e 2c47 953d
000000d0: 1000 25be 5272 77be 4af1 87be 0fe0 a13e
000000e0: bd73 8e3e e05f 8bbe 4401 1b3e e9ea 3dbe
000000f0: 7070 b43c e927 88be c0b4 e53d baba ddbd
00000100: 800f 503d 1e13 2a3e dff8 36be 895a 57be
00000110: 9aac 8abd c6a5 58be feab 9abe 042d 5d3e
00000120: a976 45be ca54 9d3e 7161 d6bc a266 543e
00000130: feca 3c3e e8b2 4cbe e080 22bd c0d2 0fbc
00000140: fc0e e23d 6dfe 9dbe d832 e73d 329f 2d3e
00000150: dc87 36be e40e a83d 3c9b d2bd f097 493d
00000160: 7561 1cbe cfb6 823e 229c 03be f4cb 39be
00000170: 665a 9d3e 03c8 933e e250 91bd 0f64 7f3e
00000180: 188e f3bd 4f1f 81be c0a6 a3bc 8c3b 71be
00000190: dea0 d03d 2256 eb3d 25f1 8a3e f4d1 b23d
000001a0: 7712 8d3d d8ca b5bd bcd9 dd3d eb65 9b3e
000001b0: 0c99 c03d 8026 023e 45d6 95be 1c09 193e
000001c0: b814 a93d 5cc3 ba3d caf0 04be 7ca1 113e
000001d0: 5e8d 493e 22c0 48be 4e75 1f3e 48d0 5c3d
000001e0: 3a10 753e 9e1d 193e 8bc4 05be 92ca 2abe
000001f0: 2edb 7f3e b52e 20be a2c2 bdbd 32c7 7bbe
00000200: 864f 473e c2cd 383e 0e4c bcbc dff2 543e
00000210: e896 503e 0bbd 853e f8e2 2d3e d047 483e
00000220: e643 9abe 5b49 94be 2aae debd 6cfd e13d
00000230: ea6e 753e 9889 963e 4b0d 7abe a452 303e
00000240: 18c6 cd3d 7ca4 a93d ca66 513e 1864 8dbe
00000250: 263e 8dbe c02b 903d d823 363e 3add 813e
00000260: 4578 61be ab49 94bd 0fc4 cf3d 6467 d13d
00000270: 5e10 9cbe e966 543e a9b8 83be 2825 5cbd
00000280: 84cb 323e 78c7 3fbd 7ec6 53be b28d 3dbe
00000290: 0675 26be 61b5 8c3e b826 56bd 2c65 e1bd
000002a0: 80d0 da3d 3225 4d3e 16ed 1b3e 785b 2f3c
000002b0: bb0d 133e 702d 51bd 550b b23d 93c8 dfbd
000002c0: 9862 43be d344 763e a8e2 1fbd 4a71 24be
000002d0: 8dff 553e 4d17 01bc 2a4e 6c3e 3fd4 8dbd
000002e0: 0c55 563e 167c 413c 2453 23be 6bc0 f6bd
000002f0: cdeb 83be 5286 b2bd d0d5 633d dc13 bb3d
00000300: 7e5c 023e 5cbb 82be a8d6 6c3d 08c0 5abd
00000310: bea0 94be 2ab5 91be 1cda f0bd 73bf 96be
00000320: 242d f83d 9af7 323e 27ad a83e 7fe2 5d3d
00000330: 6b7d 31be eb11 45bd 0e34 90bd c10c 573e
00000340: 5a3a 8fbd 95ae 863e 6481 0a3e 5dc0 dc3d
00000350: 0913 9b3e 4c64 503e edb6 043e cbdb 57be
00000360: ba6a 4bbe e381 84be 70da d6bc 8fa9 91be
00000370: fc45 8abd 8045 10bd a14e 9b3e 9016 543d
00000380: b076 9b3d f61c 7cbe ec4d 9a3d c9b3 36be
00000390: 1242 c1bd 71c9 a0be d6f7 8ebe 69ef 8b3e
000003a0: 6381 29be 0251 c6bd ea5f a13e 9673 6c3e
000003b0: 40a3 ffbc 48b9 87bd 68de f93d b4a7 97be
000003c0: e074 2abc afd5 16be 9aba 9cbd 53e5 893e
000003d0: 9214 603e 9554 39be 3077 2abd c86b 25be
000003e0: 8840 9bbe a8fc ff3d a081 88be f7bf 343e
000003f0: 4874 9abd 5881 80bd 8637 2f3d 7d9e 663e

bias f4 [30]
0.2631042 0.043972477 -0.13955714 -0.14470997 0.045087278 0.12703583 -0.16100523 0.076668724
-0.12433693 0.2590744 0.06940928 -0.31274402 -0.0778798 0.18229796 -0.15110219 0.22165892
-0.17211628 0.15586631 0.12231302 -0.24538684 -0.29726946 -0.11333413 -0.3058356 0.032141406
-0.26276216 0.29933715 0.24041976 0.027255446 0.21045026 0.22921303
00000000: 98b5 863e 7c1c 343d 11e8 0ebe da2e 14be
00000010: 70ad 383d ae15 023e 8ede 24be 7e04 9d3d
00000020: 5ca4 febd 66a5 843e 7426 8e3d fc1f a0be
00000030: 727f 9fbd 51ac 3a3e 88ba 1abe 8efa 623e
00000040: 403f 30be 6b9b 1f3e 407f fa3d b046 7bbe
00000050: b433 98be b91b e8bd 7c96 9cbe b5a6 033d
00000060: c388 86be b842 993e 9930 763e d046 df3c
00000070: 4680 573e d2b6 6a3e

weight f4 [1, 30]
0.028707694 0.051882077 0.0056676567 -0.059841312 -0.001143381 0.11476058 0.14049318 0.13854302
-0.055313006 -0.09269847 0.16439828 0.06786683 0.03631398 0.14882928 -0.081391096 0.0071301535
0.07276967 0.10814223 -0.13043009 -0.013324991 0.09905746 0.118051015 0.0384925 0.11480057
-0.15132067 -0.045657616 0.020128245 0.10847241 0.08708155 -0.064612515
00000000: 662c eb3c 4d82 543d c0b7 b93b 2a1c 75bd
00000010: 80dd 95ba 9807 eb3d 72dd 0f3e 39de 0d3e
00000020: e48f 62bd b2d8 bdbd 0658 283e c4fd 8a3d
00000030: f8bd 143d b466 183e 60b0 a6bd 10a4 e93b
00000040: 4408 953d ac79 dd3d 778f 05be 1051 5abc
00000050: a3de ca3d bbc4 f13d 50aa 1d3d 901c eb3d
00000060: cef3 1abe 7b03 3bbd fde3 a43c c826 de3d
00000070: d057 b23d 9153 84bd
