Torch_DL/models/iris/model_train_wbs_0_0.5575203895568848.pth (torch, 4650 bytes, 5 tensors)

in_layer.weight f4 [10, 3]
00000000: fa9a 14be 578e c1be 7716 b83e 8b18 8d3e
00000010: 349a 833e 4f58 b93e 9526 a63e ae4e c2be
00000020: 4a9c e53e a5eb 6d3e 38ab de3d e282 233e
00000030: 05a1 773d 7dc5 d63e 6daf 0f3f f1aa 353e
00000040: 3582 fd3e 0be0 a1bd e03c d5be 4a06 d6be
00000050: 10c0 e43e 57e2 dd3e ef40 83be a554 c33e
00000060: 6a87 e2be 9ebf 21be 1886 efbd 2ce6 02bf
00000070: 2fc8 0abf 80c0 503d
-0.14512244 -0.3780391 0.3595464 0.27557787 0.25703585 0.36200187 0.3245131 -0.37950653
0.44845802 0.23234423 0.10872501 0.15967897 0.060456295 0.41947547 0.56127053 0.1774099
0.49513403 -0.07904061 -0.41648006 -0.41801673 0.44677782 0.43336746 -0.25635478 0.38150516
-0.44243938 -0.15795752 -0.11695498 -0.51132464 -0.54211706 0.050964832

in_layer.bias f4 [10]
00000000: d532 56be 093f e5be c9f2 8abe f278 12bf
00000010: 8a12 5b3e 7245 283b 2c2d 27be 2750 a93e
00000020: 86e2 6ebe 804f cabc
-0.20917828 -0.44774655 -0.27138355 -0.572158 0.21393791 0.0025676158 -0.16325825 0.33068964
-0.233286 -0.024696112

hd_layer.weight f4 [30, 10]
00000000: 8dc8 33be 9d71 8a3e 5ac2 813d a7f1 3c3d
00000010: 66ca 453e d517 acbd d36e 89be 6975 3a3e
00000020: d711 863e 445f 4abe 854f 2abe fc89 363e
00000030: b631 183e 7aaa 353e 131a b03d c18b 84bd
00000040: 5296 6b3e b090 f5bd 60d2 00be c22e eabd
00000050: 226a 95bd 5c02 733d b7bc 03be 11eb 173e
00000060: 35af 8c3e 03db 273d 0616 143e a126 2d3d
00000070: 62d7 713e c0f2 7d3d 04bd 98be 6017 2a3d
00000080: 9001 c23c e804 9f3d 6e46 d3bd aab9 f5bd
00000090: 3ed4 513e 50f8 7b3d 4069 0fbc 033c 8f3e
000000a0: b506 a03e 74e5 dcbd 2067 283e a8a9 123e
000000b0: 04aa 94be 2887 27be 9494 65be 5401 3dbe
000000c0: a6a5 103e 74bc 26be 5e1f 7f3e 2c47 953d
000000d0: 1000 25be 5272 77be 4af1 87be 0fe0 a13e
000000e0: bd73 8e3e e05f 8bbe 4401 1b3e e9ea 3dbe
000000f0: 7070 b43c e927 88be c0b4 e53d baba ddbd
00000100: 800f 503d 1e13 2a3e dff8 36be 895a 57be
00000110: 9aac 8abd c6a5 58be 1c8a 9cbe 747f 5e3e
00000120: e559 4cbe b1e8 9d3e 715a cfbc 4cd4 5e3e
00000130: feca 3c3e 44ee 4cbe e080 22bd c0d2 0fbc
00000140: fc0e e23d 6dfe 9dbe d832 e73d 329f 2d3e
00000150: dc87 36be e40e a83d 3c9b d2bd f097 493d
00000160: 7561 1cbe cfb6 823e d257 fcbd efc2 41be
00000170: b4ac 9e3e dae6 8f3e b77b a0bd 3969 713e
00000180: 188e f3bd 5372 84be c0a6 a3bc 8c3b 71be
00000190: 1ab6 c83d 9f59 ee3d 7e3f 873e 4d78 b53d
000001a0: 2323 8f3d 35ec 9fbd bcd9 dd3d f351 9b3e
000001b0: 0c99 c03d 8026 023e 45d6 95be 1c09 193e
000001c0: b814 a93d 5cc3 ba3d caf0 04be 7ca1 113e
000001d0: 5e8d 493e 22c0 48be 4e75 1f3e 48d0 5c3d
000001e0: 3a10 753e 9e1d 193e 8bc4 05be 92ca 2abe
000001f0: 2edb 7f3e b52e 20be a2c2 bdbd 32c7 7bbe
00000200: 864f 473e c2cd 383e ff81 dbbc 516d 563e
00000210: a753 493e 7f63 863e cee5 2e3e 6918 533e
00000220: e643 9abe ce5d 94be 2aae debd 6cfd e13d
00000230: ea6e 753e 0095 923e 88e2 75be c59f 283e
00000240: 7ca7 be3d fa2a 8e3d ca66 513e c19b 90be
00000250: 263e 8dbe c02b 903d e56c 323e f4e4 823e
00000260: cb6a 68be 5b7f 90bd 1af2 d23d 1899 e63d
00000270: 5e10 9cbe eece 543e a9b8 83be 2825 5cbd
00000280: 84cb 323e 78c7 3fbd 7ec6 53be b28d 3dbe
00000290: 0675 26be 61b5 8c3e b826 56bd 2c65 e1bd
000002a0: 80d0 da3d 3225 4d3e 2bee 173e ea50 483c
000002b0: 7593 0b3e 19ad 4bbd 1c34 b43d 48bc c9bd
000002c0: 9862 43be ec24 763e a8e2 1fbd 4a71 24be
000002d0: c6ce 593e 01df 15bc 3155 733e 9015 90bd
000002e0: 9d7b 553e 4477 c43a 2453 23be 9f33 f6bd
000002f0: cdeb 83be 5286 b2bd d0d5 633d dc13 bb3d
00000300: 7e5c 023e 5cbb 82be a8d6 6c3d 08c0 5abd
00000310: bea0 94be 2ab5 91be 1cda f0bd 73bf 96be
00000320: 02f8 ef3d 0099 343e 1ad1 a43e 4fa3 633d
00000330: 7d5a 30be 9714 18bd 0e34 90bd 5bf2 563e
00000340: 5a3a 8fbd 95ae 863e ce49 063e f653 be3d
00000350: f782 933e f029 413e 79a4 ea3d 2be8 66be
00000360: ba6a 4bbe 36dc 8bbe 70da d6bc 8fa9 91be
00000370: fc45 8abd 8045 10bd a14e 9b3e 9016 543d
00000380: b076 9b3d f61c 7cbe ec4d 9a3d c9b3 36be
00000390: 1242 c1bd 71c9 a0be 93e6 90be 79ab 8c3e
000003a0: bcb1 30be b1ba c3bd a5e0 a13e ea31 773e
000003b0: 40a3 ffbc d608 88bd 68de f93d b4a7 97be
000003c0: e074 2abc afd5 16be 9aba 9cbd 53e5 893e
000003d0: 9214 603e 9554 39be 3077 2abd c86b 25be
000003e0: 8840 9bbe a8fc ff3d c845 86be b432 333e
000003f0: 9ef9 89bd de30 83bd 2a12 2b3d a9e7 5a3e
-0.17556973 0.27039805 0.06335898 0.046128895 0.1931549 -0.08402983 -0.26842365 0.18208851
0.26185486 -0.19762903 -0.16631897 0.17826074 0.14862713 0.17740813 0.08598723 -0.064719684
0.23006561 -0.119904876 -0.12580252 -0.114346996 -0.07295634 0.059328422 -0.12864958 0.14835764
0.27477422 0.04098035 0.14461526 0.042273168 0.23617318 0.061999083 -0.29831707 0.0415262
0.023682386 0.07764608 -0.10316168 -0.11998303 0.2049112 0.061516106 -0.008753121 0.27975473
0.31255117 -0.10785952 0.16445589 0.14322531 -0.29035962 -0.16360152 -0.2241996 -0.18457538
0.1412569 -0.16282827 0.2491431 0.072889656 -0.16113305 -0.24164703 -0.26551276 0.31616256
0.27822676 -0.27221584 0.15137202 -0.18546642 0.02202627 -0.2659295 0.11216116 -0.10826631
0.050796032 0.16608855 -0.17868374 -0.2103063 -0.067712024 -0.21156988 -0.3057412 0.21728307
-0.19956167 0.30841592 -0.02531168 0.21760672 0.1843681 -0.20012766 -0.039673686 -0.008778274
0.11038014 -0.30858174 0.112889946 0.1695526 -0.17825264 0.08205965 -0.10283515 0.049217165
-0.15271552 0.25530097 -0.12321438 -0.18922018 0.30991137 0.28105813 -0.07836097 0.23575296
-0.118923366 -0.25868472 -0.019976974 -0.23557872 0.09800358 0.116381876 0.26415628 0.08860836
0.06989124 -0.07808725 0.10832545 0.3033596 0.094041914 0.12709999 -0.29265037 0.14944881
0.08255905 0.09119293 -0.12982479 0.14221758 0.19682834 -0.19604543 0.15572092 0.05390957
0.23931971 0.14952704 -0.13063256 -0.16678837 0.24985954 -0.15642817 -0.09265639 -0.24587706
0.1946393 0.1804724 -0.026795385 0.20940138 0.19660817 0.26247784 0.17079851 0.2061478
-0.30129927 -0.28977817 -0.10873063 0.110346645 0.23968092 0.28629303 -0.24012196 0.16467197
0.09309289 0.06941791 0.20449367 -0.2824383 -0.27586478 0.07039595 0.17424352 0.25565302
-0.22696988 -0.07055541 0.103000835 0.11259669 -0.30481237 0.20782062 -0.25726822 -0.053746372
0.17460448 -0.046821088 -0.20681188 -0.18511084 -0.16255578 0.2748213 -0.05228302 -0.11005625
0.106842995 0.2003372 0.14836948 0.012226323 0.13630469 -0.049725626 0.087990016 -0.09850365
-0.1908058 0.24037522 -0.039034516 -0.16058841 0.21270284 -0.009147407 0.23762967 -0.07035363
0.20847936 0.0014989157 -0.15949684 -0.12021565 -0.2576584 -0.08717026 0.05562383 0.09134647
0.12730595 -0.2553357 0.0578219 -0.05340579 -0.29028887 -0.2845853 -0.11760351 -0.2944294
0.117172256 0.1763649 0.32190782 0.055575665 -0.17222019 -0.03712901 -0.07041179 0.20990889
-0.069935516 0.2630507 0.13114092 0.09293358 0.28810856 0.18863654 0.11457152 -0.22549503
-0.19864932 -0.27316445 -0.026227206 -0.28449675 -0.0675163 -0.03522253 0.30333427 0.05177933
0.07590997 -0.24620423 0.07534394 -0.1784202 -0.0943643 -0.31403688 -0.28300914 0.27474573
-0.172553 -0.09557093 0.31616703 0.24140134 -0.031205773 -0.0664231 0.12200624 -0.29620135
-0.010403842 -0.14729951 -0.07652779 0.26932773 0.21882847 -0.18098672 -0.041617572 -0.16154397
-0.3032267 0.12499362 -0.26225114 0.1749981 -0.06737064 -0.06405805 0.04176537 0.21377434

hd_layer.bias f4 [30]
00000000: e8e5 8b3e 642d 5d3d d7f3 03be da2e 14be
00000010: 70ad 383d ae15 023e 8ede 24be f2bc af3d
00000020: 5ca4 febd a5cc 7b3e 95e3 a13d fc1f a0be
00000030: 727f 9fbd 006d 443e bcf8 27be f5ac 6c3e
00000040: 403f 30be 5492 293e 148e e73d b046 7bbe
00000050: cf1b 93be 30dd 02be 7c96 9cbe ad64 2a3d
00000060: c388 86be c9f7 933e 8c7a 803e d046 df3c
00000070: 4680 573e ada7 583e
0.27323842 0.053998366 -0.12885986 -0.14470997 0.045087278 0.12703583 -0.16100523 0.0858096
-0.12433693 0.24589784 0.07904736 -0.31274402 -0.0778798 0.19182205 -0.16403478 0.23112853
-0.17211628 0.16559726 0.11306396 -0.24538684 -0.28732154 -0.12779689 -0.3058356 0.04159992
-0.26276216 0.28899983 0.25093496 0.027255446 0.21045026 0.21157713

out_layer.weight f4 [1, 30]
00000000: b404 f03c e48a 4b3d 324a 0a3c 2a1c 75bd
00000010: 80dd 95ba 9807 eb3d 72dd 0f3e b959 1c3e
00000020: e48f 62bd 1c92 9abd 8d1f 263e c4fd 8a3d
00000030: f8bd 143d 353b 1c3e e7cf 80bd 3b6e 543c
00000040: 4408 953d 31da d83d 9f1b 08be 1051 5abc
00000050: 18c1 ba3d 6d02 cb3d 50aa 1d3d 230d f83d
00000060: cef3 1abe 769a 07bd 6a37 a53c c826 de3d
00000070: d057 b23d 04fd 35bd
0.029299118 0.049693003 0.008440541 -0.059841312 -0.001143381 0.11476058 0.14049318 0.15268601
-0.055313006 -0.075473994 0.16222973 0.06786683 0.03631398 0.1525696 -0.06289654 0.012965734
0.07276967 0.10588492 -0.13291787 -0.013324991 0.09118861 0.09912572 0.0384925 0.12111881
-0.15132067 -0.03310629 0.020168025 0.10847241 0.08708155 -0.044430748
