Torch_DL/models/iris/model_train_wbs_0_0.5074417591094971.pth (torch, 4650 bytes, 5 tensors)

in_layer.weight f4 [10, 3]
000000 a7 d5 10 be cf a3 bf be 41 f6 b9 3e fb 69 8d 3e
       -0.14144002 -0.37429664 0.3632069 0.2761992
000010 19 49 85 3e 63 e1 b6 3e 0f 98 a5 3e a5 2a c1 be
       0.26032332 0.3571883 0.32342574 -0.37727848
000020 40 48 e2 3e f0 16 6d 3e b4 87 e2 3d e9 04 1e 3e
       0.44195747 0.23153281 0.110610396 0.1543156
000030 33 f0 71 3d 4e 60 d7 3e 75 35 0e 3f 43 0a 37 3e
       0.059066962 0.42065662 0.5555032 0.17875008
000040 0b 66 ff 3e 81 dc a9 bd e0 3c d5 be 4a 06 d6 be
       0.4988254 -0.08294011 -0.41648006 -0.41801673
000050 10 c0 e4 3e b9 2e e2 3e 25 a6 7d be ce a7 c6 3e
       0.44677782 0.44176272 -0.2477041 0.387999
000060 6a 87 e2 be 9e bf 21 be 18 86 ef bd 2c e6 02 bf
       -0.44243938 -0.15795752 -0.11695498 -0.51132464
000070 2f c8 0a bf 80 c0 50 3d
       -0.54211706 0.050964832

in_layer.bias f4 [10]
000000 41 5f 52 be a9 e4 e3 be 5a 2c 8a be 3c 25 12 bf
       -0.20544149 -0.4451039 -0.26986963 -0.57088065
000010 e5 bc 5b 3e b9 c6 b9 3b 2c 2d 27 be 62 a9 ad 3e
       0.21458776 0.0056694415 -0.16325825 0.3391829
000020 86 e2 6e be 80 4f ca bc
       -0.233286 -0.024696112

hd_layer.weight f4 [30, 10]
000000 b4 d9 36 be f2 e8 89 3e 34 69 6f 3d f4 5a 38 3d
       -0.17856485 0.26935536 0.05844994 0.045008615
000010 51 7f 44 3e c1 37 a3 bd d3 6e 89 be db 94 38 3e
       0.19189192 -0.079696186 -0.26842365 0.18025534
000020 d7 11 86 3e 44 5f 4a be 52 5b 2d be d9 62 35 3e
       0.26185486 -0.19762903 -0.16929367 0.17713489
000030 e8 3f 13 3e 8f 6f 34 3e 15 5d ad 3d be fb 77 bd
       0.14379847 0.17620681 0.084650196 -0.060542814
000040 52 96 6b 3e 05 6d f9 bd 60 d2 00 be c2 2e ea bd
       0.23006561 -0.12178997 -0.12580252 -0.114346996
000050 1c d6 9b bd 20 cd 71 3d c7 47 09 be 0e 85 17 3e
       -0.076091975 0.059033513 -0.13406287 0.1479685
000060 07 63 8c 3e 91 c9 3d 3d 06 16 14 3e 90 ce 27 3d
       0.27419302 0.046334807 0.14461526 0.040968478
000070 62 d7 71 3e c0 f2 7d 3d 04 bd 98 be 60 17 2a 3d
       0.23617318 0.061999083 -0.29831707 0.0415262
000080 90 01 c2 3c e8 04 9f 3d 6e 46 d3 bd aa b9 f5 bd
       0.023682386 0.07764608 -0.10316168 -0.11998303
000090 3e d4 51 3e 50 f8 7b 3d 40 69 0f bc 03 3c 8f 3e
       0.2049112 0.061516106 -0.008753121 0.27975473
0000a0 b5 06 a0 3e 74 e5 dc bd 20 67 28 3e a8 a9 12 3e
       0.31255117 -0.10785952 0.16445589 0.14322531
0000b0 04 aa 94 be 28 87 27 be 94 94 65 be 54 01 3d be
       -0.29035962 -0.16360152 -0.2241996 -0.18457538
0000c0 a6 a5 10 3e 74 bc 26 be 5e 1f 7f 3e 2c 47 95 3d
       0.1412569 -0.16282827 0.2491431 0.072889656
0000d0 10 00 25 be 52 72 77 be 4a f1 87 be 0f e0 a1 3e
       -0.16113305 -0.24164703 -0.26551276 0.31616256
0000e0 bd 73 8e 3e e0 5f 8b be 44 01 1b 3e e9 ea 3d be
       0.27822676 -0.27221584 0.15137202 -0.18546642
0000f0 70 70 b4 3c e9 27 88 be c0 b4 e5 3d ba ba dd bd
       0.02202627 -0.2659295 0.11216116 -0.10826631
000100 80 0f 50 3d 1e 13 2a 3e df f8 36 be 89 5a 57 be
       0.050796032 0.16608855 -0.17868374 -0.2103063
000110 9a ac 8a bd c6 a5 58 be e5 06 9e be ec 24 5d 3e
       -0.067712024 -0.21156988 -0.30864635 0.21596116
000120 b3 22 51 be fc 31 9d 3e 54 c1 db bc 24 bd 62 3e
       -0.20423393 0.30702198 -0.026825584 0.22142464
000130 fe ca 3c 3e 3a fe 4e be e0 80 22 bd c0 d2 0f bc
       0.1843681 -0.20214167 -0.039673686 -0.008778274
000140 fc 0e e2 3d 6d fe 9d be d8 32 e7 3d 32 9f 2d 3e
       0.11038014 -0.30858174 0.112889946 0.1695526
000150 dc 87 36 be e4 0e a8 3d 3c 9b d2 bd f0 97 49 3d
       -0.17825264 0.08205965 -0.10283515 0.049217165
000160 75 61 1c be cf b6 82 3e d2 57 fc bd 33 60 4a be
       -0.15271552 0.25530097 -0.12321438 -0.1976326
000170 38 7d 9a 3e 6b 97 8b 3e ac b1 b1 bd ee c2 68 3e
       0.3017366 0.2726396 -0.08676466 0.2273061
000180 18 8e f3 bd fa b9 88 be c0 a6 a3 bc 8c 3b 71 be
       -0.118923366 -0.2670439 -0.019976974 -0.23557872
000190 61 b1 c2 3d 07 d0 eb 3d 65 d3 84 3e 5c c8 b2 3d
       0.095064886 0.115142874 0.2594253 0.08729622
0001a0 e5 30 8c 3d f1 cc 97 bd bc d9 dd 3d 51 51 9a 3e
       0.068452634 -0.07412136 0.10832545 0.30140164
0001b0 0c 99 c0 3d 80 26 02 3e 45 d6 95 be 1c 09 19 3e
       0.094041914 0.12709999 -0.29265037 0.14944881
0001c0 b8 14 a9 3d 5c c3 ba 3d ca f0 04 be 7c a1 11 3e
       0.08255905 0.09119293 -0.12982479 0.14221758
0001d0 5e 8d 49 3e 22 c0 48 be 4e 75 1f 3e 48 d0 5c 3d
       0.19682834 -0.19604543 0.15572092 0.05390957
0001e0 3a 10 75 3e 9e 1d 19 3e 8b c4 05 be 92 ca 2a be
       0.23931971 0.14952704 -0.13063256 -0.16678837
0001f0 2e db 7f 3e b5 2e 20 be a2 c2 bd bd 32 c7 7b be
       0.24985954 -0.15642817 -0.09265639 -0.24587706
000200 86 4f 47 3e c2 cd 38 3e 4d 88 f3 bc 1c 25 55 3e
       0.1946393 0.1804724 -0.02972808 0.20814937
000210 2a 7d 44 3e d0 b5 85 3e 88 69 2d 3e e4 22 57 3e
       0.19188371 0.26115274 0.16934788 0.21009403
000220 e6 43 9a be ad 5f 95 be 2a ae de bd 6c fd e1 3d
       -0.30129927 -0.29174557 -0.10873063 0.110346645
000230 ea 6e 75 3e 4e 2a 8e 3e 65 3d 7e be d0 c5 1f 3e
       0.23968092 0.2776665 -0.24828108 0.15602803
000240 4b 01 ad 3d a6 a1 78 3d ca 66 51 3e 6c f7 94 be
       0.08447512 0.060701035 0.20449367 -0.29095018
000250 26 3e 8d be c0 2b 90 3d a7 5d 2f 3e e5 65 82 3e
       -0.27586478 0.07039595 0.1712557 0.25468364
000260 a4 91 6d be 84 a6 92 bd c9 7b d0 3d 13 de ef 3d
       -0.23200089 -0.071606666 0.1017986 0.11712279
000270 5e 10 9c be c8 f6 52 3e a9 b8 83 be 28 25 5c bd
       -0.30481237 0.20601952 -0.25726822 -0.053746372
000280 84 cb 32 3e 78 c7 3f bd 7e c6 53 be b2 8d 3d be
       0.17460448 -0.046821088 -0.20681188 -0.18511084
000290 06 75 26 be 61 b5 8c 3e b8 26 56 bd 2c 65 e1 bd
       -0.16255578 0.2748213 -0.05228302 -0.11005625
0002a0 80 d0 da 3d 32 25 4d 3e ad e9 14 3e ad 6b 34 3c
       0.106842995 0.2003372 0.14542265 0.011012
0002b0 96 b5 06 3e a1 f3 50 bd 75 4d b1 3d 05 84 c1 bd
       0.13155207 -0.051013593 0.08657352 -0.09449009
0002c0 98 62 43 be c6 27 74 3e a8 e2 1f bd 4a 71 24 be
       -0.1908058 0.23843297 -0.039034516 -0.16058841
0002d0 c6 c8 5c 3e dd 0d 00 bc 73 17 78 3e 14 36 8d bd
       0.21560964 -0.007815805 0.24227695 -0.0689508
0002e0 6e 0a 57 3e 28 52 15 bb 24 53 23 be 9e 12 f2 bd
       0.21000072 -0.0022784565 -0.15949684 -0.11819957
0002f0 cd eb 83 be 52 86 b2 bd d0 d5 63 3d dc 13 bb 3d
       -0.2576584 -0.08717026 0.05562383 0.09134647
000300 7e 5c 02 3e 5c bb 82 be a8 d6 6c 3d 08 c0 5a bd
       0.12730595 -0.2553357 0.0578219 -0.05340579
000310 be a0 94 be 2a b5 91 be 1c da f0 bd 73 bf 96 be
       -0.29028887 -0.2845853 -0.11760351 -0.2944294
000320 19 e8 e9 3d ad 63 33 3e 1e 5f a2 3e 52 80 5e 3d
       0.11421222 0.17518492 0.31713194 0.054321595
000330 9a c5 31 be 05 68 07 bd 0e 34 90 bd 65 fb 54 3e
       -0.17360535 -0.033058185 -0.07041179 0.20799024
000340 5a 3a 8f bd 95 ae 86 3e 48 40 03 3e 08 78 ae 3d
       -0.069935516 0.2630507 0.1281749 0.08518988
000350 1f 93 8f 3e 00 3c 39 3e 0e b8 da 3d 3d dc 6e be
       0.28041932 0.18089294 0.10679637 -0.23326202
000360 ba 6a 4b be ab c7 8f be 70 da d6 bc 8f a9 91 be
       -0.19864932 -0.28082022 -0.026227206 -0.28449675
000370 fc 45 8a bd 80 45 10 bd a1 4e 9b 3e 90 16 54 3d
       -0.0675163 -0.03522253 0.30333427 0.05177933
000380 b0 76 9b 3d f6 1c 7c be ec 4d 9a 3d c9 b3 36 be
       0.07590997 -0.24620423 0.07534394 -0.1784202
000390 12 42 c1 bd 71 c9 a0 be 94 66 92 be dd 06 8c 3e
       -0.0943643 -0.31403688 -0.28593886 0.27348986
0003a0 8f 88 35 be 7b 73 c6 bd 01 22 a1 3e e0 3b 7b 3e
       -0.17727874 -0.09689995 0.31471255 0.24534559
0003b0 40 a3 ff bc 36 12 8c bd 68 de f9 3d b4 a7 97 be
       -0.031205773 -0.06839411 0.12200624 -0.29620135
0003c0 e0 74 2a bc af d5 16 be 9a ba 9c bd 53 e5 89 3e
       -0.010403842 -0.14729951 -0.07652779 0.26932773
0003d0 92 14 60 3e 95 54 39 be 30 77 2a bd c8 6b 25 be
       0.21882847 -0.18098672 -0.041617572 -0.16154397
0003e0 88 40 9b be a8 fc ff 3d f0 bf 84 be 4a 72 34 3e
       -0.3032267 0.12499362 -0.25927687 0.17621723
0003f0 22 73 80 bd f0 8c 80 bd 4f dc 30 3d 99 ed 56 3e
       -0.0627196 -0.06276882 0.043178853 0.20989074

hd_layer.bias f4 [30]
000000 3c b5 8d 3e 6f fb 6a 3d 26 60 fe bd da 2e 14 be
       0.27677333 0.057368692 -0.124206826 -0.14470997
000010 70 ad 38 3d ae 15 02 3e 8e de 24 be 13 e1 b5 3d
       0.045087278 0.12703583 -0.16100523 0.0888082
000020 5c a4 fe bd 3d 3b 73 3e 9b 57 a8 3d fc 1f a0 be
       -0.12433693 0.23753066 0.082198344 -0.31274402
000030 72 7f 9f bd aa a1 47 3e b9 cb 30 be e4 80 70 3e
       -0.0778798 0.19495264 -0.17265214 0.23486668
000040 40 3f 30 be 43 d9 2c 3e 5f 7f e1 3d b0 46 7b be
       -0.17211628 0.16879754 0.11010622 -0.24538684
000050 88 70 91 be 97 c1 0a be 7c 96 9c be 0c 35 37 3d
       -0.28406167 -0.13550411 -0.3058356 0.044728324
000060 c3 88 86 be 53 65 92 3e 8d 6d 82 3e d0 46 df 3c
       -0.26276216 0.2859293 0.25474206 0.027255446
000070 46 80 57 3e fe 89 4f 3e
       0.21045026 0.20267484

out_layer.weight f4 [1, 30]
000000 7c fb e2 3c db 73 40 3d c3 20 02 3c 2a 1c 75 bd
       0.027707808 0.04698549 0.007942381 -0.059841312
000010 80 dd 95 ba 98 07 eb 3d 72 dd 0f 3e f3 d2 23 3e
       -0.001143381 0.11476058 0.14049318 0.1599844
000020 e4 8f 62 bd a7 ff 8a bd b6 4c 23 3e c4 fd 8a 3d
       -0.055313006 -0.06787043 0.15947232 0.06786683
000030 f8 bd 14 3d e3 2c 1c 3e 14 b8 5b bd c8 b4 64 3c
       0.03631398 0.15251498 -0.053642347 0.013959117
000040 44 08 95 3d 79 2c d3 3d 26 31 0b be 10 51 5a bc
       0.07276967 0.10311217 -0.13592967 -0.013324991
000050 3e a7 b0 3d 4c fb b9 3d 50 aa 1d 3d 53 be fa 3d
       0.08625649 0.09081134 0.0384925 0.12243333
000060 ce f3 1a be 2d d4 e4 bc 4c 60 96 3c c8 26 de 3d
       -0.15132067 -0.027933205 0.018356465 0.10847241
000070 d0 57 b2 3d bd bf 10 bd
       0.08708155 -0.035339106
