Torch_DL/models/iris/model_train_wbs_0_0.11704570055007935.pth (torch, 4660 bytes, 5 tensors)

in_layer.weight f4 [10, 3]
0.35152045 -0.3699326 -0.1532461 -0.15600908 0.24358958 -0.3805722 0.4781835 -0.038573943
0.43590263 -0.30409968 -0.3111214 -0.26337776 0.11089361 -0.28533062 0.02254653 0.4377375
0.12610646 -0.48847187 0.26387888 -0.13446519 0.5298895 -0.26774186 0.5072022 0.31337726
0.3563861 0.022423655 -0.53773594 0.31195787 0.5049715 0.52894133
00000000: 7dfa b33e ce67 bdbe 8cec 1cbe d8c0 1fbe
00000010: 8c6f 793e 5cda c2be 78d4 f43e b6ff 1dbd
00000020: a12e df3e f4b2 9bbe 4e4b 9fbe 73d9 86be
00000030: 301c e33d db16 92be 80b3 b83c 211f e03e
00000040: 0d22 013e fc18 fabe 221b 873e 3eb1 09be
00000050: d7a6 073f 7615 89be 01d8 013f fc72 a03e
00000060: 3d78 b63e d0b1 b73c 10a9 09bf f1b8 9f3e
00000070: d045 013f b368 073f

in_layer.bias f4 [10]
-0.3385411 -0.50222945 -0.54979616 0.3471836 -0.46516776 -0.27187884 -0.09313532 -0.5798629
-0.1445483 0.04301328
00000000: 4255 adbe 1c92 00bf 71bf 0cbf 0cc2 b13e
00000010: 782a eebe b433 8bbe bbbd bebd e571 14bf
00000020: 7804 14be b12e 303d

hd_layer.weight f4 [30, 10]
-0.25295007 0.28707764 0.064873576 0.3017774 -0.16459325 -0.1300181 -0.23132563 -0.12843303
-0.2697732 -0.25634617 -0.083857164 -0.30205366 -0.012484014 -0.052981317 0.14691803 -0.025324017
0.16364577 -0.27381337 0.034161657 -0.26800808 0.28210482 -0.03644207 -0.29517585 -0.2421126
-0.04540649 -0.2545184 0.16666967 0.16944781 0.3005438 0.107791156 -0.2016631 -0.27455404
-0.19371572 -0.30832517 -0.10725628 -0.061744153 0.17285225 0.012472123 -0.14520825 0.0272502
0.2306644 0.1232712 -0.27378553 0.13395274 -0.30638975 -0.16185167 -0.19784185 0.24622068
-0.1655779 0.06507629 -0.07545782 -0.24684018 0.10145863 -0.25946504 -0.28994432 0.1073078
0.10669553 -0.14566286 -0.22734717 -0.21411927 0.2701069 -0.033501744 0.08195644 -0.016792983
-0.018646091 0.26443923 -0.064914316 -0.14023605 -0.15935723 0.15566938 0.31409475 -0.2443392
-0.24487004 0.26000944 0.25967017 -0.28932482 -0.051957577 -0.30584788 -0.014838964 -0.0009704828
0.15314883 0.25713167 0.03661047 0.18905154 0.1630699 -0.18234897 -0.10879435 0.036723666
0.18260178 0.09987351 -0.18997857 -0.16557312 -0.18705148 0.15461883 0.21861902 -0.11416195
0.22614741 -0.104419045 0.3031962 0.1610977 -0.2842819 -0.04680741 -0.06611425 -0.16774715
0.056545436 0.013436019 -0.111138955 -0.041512698 0.17709121 -0.13455383 -0.029620165 -0.21880034
-0.2210752 -0.13891982 -0.09600647 -0.26236397 0.20240471 0.04304421 0.21467492 0.27667448
0.03140074 0.13350758 -0.016301543 0.07079521 -0.2745724 0.06452504 -0.16646549 0.3130009
-0.27037606 -0.09611949 -0.0552361 -0.2936019 -0.11146425 0.14239556 -0.040140748 -0.21237227
0.29417345 -0.039281636 0.14372653 -0.31107235 -0.14994209 0.2198632 -0.3077839 -0.1892711
0.06712595 0.19494674 -0.09629941 -0.2125272 0.3146234 0.013054043 -0.26584083 -0.18870036
0.23945168 0.084910125 0.18724641 -0.23530692 0.14351428 -0.3089741 0.05167553 -0.26807684
0.31155744 -0.20221522 -0.17338833 -0.05992213 0.07884106 0.037897825 0.06601864 -0.10630883
-0.21824014 -0.08354217 0.20408429 -0.22927833 -0.12375626 0.25644287 0.056720853 0.14613426
-0.18453486 0.23939729 0.30584416 0.3026184 -0.08642076 -0.10962246 0.24009176 0.0050913095
-0.009716749 -0.2508339 0.097827576 -0.065890156 0.27108276 0.19401968 0.21936229 0.07665005
0.063771546 0.1824075 -0.2540577 0.12072876 -0.07222588 -0.028866291 -0.15325323 -0.24618368
-0.30944136 -0.1517231 0.07135178 0.1160731 -0.16236538 0.0427493 -0.23231523 -0.18739486
0.050237756 0.10161162 -0.31846002 0.245743 0.1371486 0.110443026 0.24337503 -0.25522938
0.22834119 0.037712518 0.28657034 0.23492555 -0.24845785 -0.2693688 0.17599131 -0.09865251
-0.24422294 0.1232795 0.034071084 0.008169198 -0.050174993 -0.048347786 -0.15539704 -0.19109626
-0.03912901 0.15652984 -0.0042987764 -0.06432192 0.06545589 0.2749255 -0.18519329 0.1668205
0.25607264 -0.079882815 0.2135276 -0.08397722 0.22093925 -0.017833218 0.02807648 -0.24395207
0.059864704 0.16824543 -0.23864602 -0.0879129 0.16771065 -0.24626055 0.070334256 0.08361686
00000000: ac82 81be d7fb 923e 70dc 843d 9182 9a3e
00000010: 228b 28be 7723 05be a0e0 6cbe f383 03be
00000020: b61f 8abe ce3f 83be 4ebd abbd c7a6 9abe
00000030: c089 4cbc f002 59bd ae71 163e 5074 cfbc
00000040: c292 273e 4431 8cbe 18ed 0b3d 5b38 89be
00000050: 0b70 903e 4844 15bd 4a21 97be 5eec 77be
00000060: 28fc 39bd 3c50 82be 74ab 2a3e ba83 2d3e
00000070: e1e0 993e 9cc1 dc3d c680 4ebe 5992 8cbe
00000080: 6a5d 46be ccdc 9dbe 2ea9 dbbd 70e7 7cbd
00000090: 2e00 313e e057 4c3c 79b1 14be d03b df3c
000000a0: 4a33 6c3e 9c75 fc3d 9e2d 8cbe e82a 093e
000000b0: 1edf 9cbe 72bc 25be 0e97 4abe 4621 7c3e
000000c0: 418d 29be b846 853d a189 9abd acc3 7cbe
000000d0: 8bc9 cf3d 9ad8 84be 9573 94be 31c4 db3d
000000e0: 3083 da3d a528 15be b2cd 68be 1542 5bbe
000000f0: 744b 8a3e 2039 09bd c7d8 a73d 7091 89bc
00000100: b0bf 98bc 9464 873e ccf1 84bd 0a9a 0fbe
00000110: 8b2e 23be cb67 1f3e 07d1 a03e 0e34 7abe
00000120: 36bf 7abe f51f 853e 7df3 843e 6222 94be
00000130: 78d1 54bd 1898 9cbe 201f 73bc 0068 7eba
00000140: 0cd3 1c3e c3a6 833e dcf4 153d ba96 413e
00000150: ccfb 263e b0b9 3abe 92cf debd 8e6b 163d
00000160: f6fb 3a3e 7c8a cc3d be89 42be 008c 29be
00000170: 6c8a 3fbe 6654 1e3e aadd 5f3e becd e9bd
00000180: 3093 673e a7d9 d5bd 883c 9b3e ccf6 243e
00000190: 668d 91be 20b9 3fbd e866 87bd e9c5 2bbe
000001a0: 309c 673d c022 5c3c d29c e3bd 3809 2abd
000001b0: 6657 353e 7bc8 09be fda5 f2bc 320d 60be
000001c0: 8a61 62be ff40 0ebe 0a9f c4bd 9254 86be
000001d0: 2e43 4f3e 204f 303d bed3 5b3e 47a8 8d3e
000001e0: 109e 003d 36b6 083e d08a 85bc 14fd 903d
000001f0: c194 8cbe b425 843d ee75 2abe a741 a03e
00000200: bb6e 8abe 4cda c4bd 403f 62bd fd52 96be
00000210: 5e47 e4bd 24d0 113e a06a 24bd 1e78 59be
00000220: e79d 963e c8e5 20bd 0c2d 133e e044 9fbe
00000230: 6b8a 19be d223 613e da95 9dbe 49d0 41be
00000240: 5479 893d 1ea0 473e a038 c5bd bba0 59be
00000250: 5116 a13e a0e0 553c 4a1c 88be ab3a 41be
00000260: d232 753e 5ce5 ad3d 86bd 3f3e 4cf4 70be
00000270: 68f5 123e da31 9ebe b8a9 533d 5e41 89be
00000280: 7584 9f3e 8211 4fbe b68c 31be e870 75bd
00000290: 6c77 a13d c03a 1b3d c834 873d 72b8 d9bd
000002a0: 587a 5fbe 2818 abbd 79fb 503e f0c7 6abe
000002b0: ec73 fdbd 7b4c 833e 2054 683d 38a4 153e
000002c0: b5f6 3cbe 9024 753e 9b97 9c3e cdf0 9a3e
000002d0: 5efd b0bd be81 e0bd 9dda 753e 00d5 a63b
000002e0: 0033 1fbc 4d6d 80be d359 c83d 6bf1 86bd
000002f0: 5ccb 8a3e 18ad 463e 82a0 603e b4fa 9c3d
00000300: a89a 823d 08c9 3a3e da13 82be a440 f73d
00000310: 2aeb 93bd 0079 ecbc 6aee 1cbe 9317 7cbe
00000320: 196f 9ebe 4d5d 1bbe e220 923d bcb7 ed3d
00000330: 1c43 26be e419 2f3d 0be4 6dbe 70e4 3fbe
00000340: 1bc6 4d3d c119 d03d 310d a3be 0ea4 7b3e
00000350: af70 0c3e f42f e23d 4e37 793e 6dad 82be
00000360: 46d2 693e 7178 1a3d 59b9 923e 5390 703e
00000370: bc6b 7ebe b5ea 89be 1137 343e 540a cabd
00000380: 9415 7abe f679 fc3d 1f8e 0b3d 1ad8 053c
00000390: 4b84 4dbd 5408 46bd 6720 1fbe bdae 43be
000003a0: be45 20bd 5c49 203e c0dc 8cbb 36bb 83bd
000003b0: bd0d 863d 09c3 8c3e 4fa3 3dbe fed2 2a3e
000003c0: f41b 833e 9a99 a3bd fba6 5a3e 40fc abbd
000003d0: e63d 623e f816 92bc a500 e63c 92ce 79be
000003e0: b134 753d 8848 2c3e 9f5f 74be ae0b b4bd
000003f0: 57bc 2b3e ba2b 7cbe 680b 903d 513f ab3d

hd_layer.bias f4 [30]
-0.11954455 0.21782759 -0.27639246 -0.117268115 -0.25585738 0.276382 0.32235602 0.1992862
-0.2046733 0.11476325 0.009157777 0.2105474 0.013293117 -0.089250594 -0.25387818 0.12294638
0.035976946 0.30039513 0.012498842 -0.07388571 0.06235126 -0.20774925 -0.30039328 0.08279652
-0.26289335 -0.11019016 0.12095084 0.03214078 0.019842446 -0.12983963
00000000: c6d3 f4bd 320e 5f3e 5083 8dbe 442a f0bd
00000010: bdff 82be f181 8d3e d90b a53e ae11 4c3e
00000020: e195 51be ff08 eb3d 800a 163c bd99 573e
00000030: 60cb 593c 04c9 b6bd 52fc 81be 50cb fb3d
00000040: 905c 133d 64cd 993e f1c7 4c3c 6451 97bd
00000050: 0964 7f3d 38bc 54be 26cd 99be 3991 a93d
00000060: f599 86be 61ab e1bd 13b5 f73d 0da6 033d
00000070: a08c a23c aef4 04be

out_layer.weight f4 [1, 30]
-0.009060472 -0.07063477 0.013978943 0.17255309 0.15715739 -0.07741375 0.06377895 0.038485557
0.1876921 0.03603359 0.072986454 -0.06793353 0.07600495 0.086951494 -0.04923974 0.072469264
0.035549954 0.076880515 0.02501146 0.033120602 -0.11934098 0.00069439324 -0.13426532 -0.040207706
0.05211256 0.1355982 0.09871925 0.080240294 0.05051528 0.023516893
00000000: 6072 14bc f6a8 90bd f007 653c c2b1 303e
00000010: deed 203e 1a8b 9ebd 8a9e 823d 08a3 1d3d
00000020: 5c32 403e f597 133d ec79 953d bc20 8bbd
00000030: 7ca8 9b3d a013 b23d 9caf 49bd c46a 943d
00000040: d49c 113d 8873 9d3d d5e4 cc3c 78a9 073d
00000050: 0b69 f4bd f107 363a d97c 09be d6b0 24bd
00000060: fb73 553d 41da 0a3e 512d ca3d 0655 a43d
00000070: 1ce9 4e3d 80a6 c03c
