Torch_DL/models/iris/model_train_wb.pth (torch, 4046 bytes, 5 tensors)

in_layer.weight f4 [10, 3]
-0.43340603 0.05294442 0.22675222 -0.54012066 0.37826967 0.566081 -0.30710763 -0.3296134
-0.1723251 -0.46393842 -0.40613818 -0.35784465 -0.43999565 0.13085169 -0.40861377 0.24926776
-0.28153616 -0.048965152 -0.2717082 -0.30281883 -0.011095583 -0.5570657 -0.2263886 -0.48536694
-0.05596542 0.5592358 0.08207535 -0.35663062 0.29572743 -0.24172258
00000000: 65e7 ddbe 40dc 583d bc31 683e 5945 0abf
00000010: 90ac c13e afea 103f 363d 9dbe 16c3 a8be
00000020: fe75 30be 5689 edbe 58f1 cfbe 6a37 b7be
00000030: 1c47 e1be fcfd 053e d335 d1be 0c40 7f3e
00000040: 8225 90be af8f 48bd 561d 8bbe 120b 9bbe
00000050: 40ca 35bc dc9b 0ebf 6ad2 67be 0482 f8be
00000060: ff3b 65bd 142a 0f3f 1f17 a83d 4a98 b6be
00000070: 9669 973e 2086 77be

in_layer.bias f4 [10]
0.1741606 0.094007105 -0.5292375 -0.1120204 -0.09167069 0.5430531 0.06754136 -0.25487313
0.36057585 0.18246841
00000000: 2857 323e cc86 c03d 1c7c 07bf f46a e5bd
00000010: d8bd bbbd 8705 0b3f 2053 8a3d bb7e 82be
00000020: 669d b83e 00d9 3a3e

hd_layer.weight f4 [30, 10]
-0.25403193 0.048416734 0.20429233 -0.005769819 0.028143883 -0.23976633 0.0076732337 -0.22137463
-0.28698438 -0.1638386 0.17064011 -0.28253114 0.14551389 -0.21455026 0.14057466 0.045256615
0.0046826303 0.03344333 0.012483895 0.062106192 0.16718623 -0.15251839 0.2805278 0.035511643
-0.14078104 -0.089943185 -0.314624 -0.031705707 0.2005293 -0.094513506 -0.11503485 0.061721396
-0.22574571 0.14903393 0.21797511 0.054583263 0.2875317 0.014909416 0.11825884 0.053396285
0.03769344 0.15113747 0.1598174 0.17428938 -0.116095394 -0.14382902 0.310065 -0.006450206
-0.26827478 0.106915355 0.039075494 -0.02961409 -0.302183 0.12422964 0.28573242 -0.08933428
-0.006303668 -0.06035301 -0.0040134788 0.06312892 0.040994436 0.03460783 0.06606826 0.25911227
0.066423 -0.2235662 -0.069142744 -0.2713327 0.32440224 0.21613315 0.1019842 -0.17633675
0.09455362 -0.008408368 -0.037613004 -0.17726731 -0.027055264 0.2117854 -0.29630777 0.17551044
-0.27309784 -0.13404879 -0.19069237 0.048271477 -0.05865833 0.23695493 -0.2736409 -0.18422931
-0.30744565 0.1910812 -0.10626571 -0.015868649 0.1983374 -0.12736541 0.14582977 0.12934789
-0.23685685 0.11812535 0.2570024 0.11511919 -0.10456817 0.11702063 0.050061733 -0.2569455
-0.08047843 0.14740399 0.1528529 -0.023388147 0.036179278 0.0032602549 -0.120064914 -0.13925034
-0.125563 0.26753893 -0.29704297 0.08953736 0.31243637 0.029585063 -0.057598256 0.20351294
-0.27772105 0.05897255 0.24940994 0.12820739 0.16934243 -0.05974078 -0.08657412 -0.004843533
0.07925824 -0.054554164 0.24203226 -0.17060205 0.075362444 0.12251431 0.28714988 0.24776164
0.14448512 -0.29256296 -0.21428579 0.085689425 0.07526985 0.18066618 0.19128814 0.06867692
0.072353184 0.033556487 -0.27164334 0.042747468 0.21822064 0.008917451 -0.1617844 0.032703966
-0.035547614 -0.17089356 -0.25822148 -0.00035461783 0.26551113 -0.036627144 -0.036534846 0.2648572
0.18278793 0.14289142 -0.2874646 -0.25005844 -0.14801271 0.040224753 0.26187667 -0.11412971
0.31388858 -0.005525708 -0.033860028 0.005080384 0.18939707 0.26170197 -0.11386481 0.13278644
0.025402576 0.21723661 0.0125701465 0.105458826 0.30065516 -0.25191206 0.26309982 -0.22563478
-0.2802718 -0.095864385 0.07841167 -0.07420835 -0.2903609 0.058658063 0.30517313 -0.26370993
0.1595482 0.26387832 0.26762035 -0.05384621 -0.17332081 -0.22262982 -0.31569457 0.2440168
0.19259605 0.31221095 0.0011259317 -0.22049776 -0.079533845 0.10342634 -0.094405845 -0.031188667
0.005184669 -0.26534143 -0.26266712 0.12766488 0.0880191 -0.16327098 -0.0072923005 0.09050314
-0.20069775 0.041227102 0.0057685967 -0.074894816 0.126962 -0.03429506 -0.06982076 -0.10299875
0.24762031 0.22795479 -0.30232555 0.2686157 -0.18797275 0.2278401 0.11802268 -0.021819869
0.057865113 0.06192541 -0.2976056 0.2424988 -0.10071987 0.23892656 -0.298698 0.07932463
-0.30860382 0.025439292 -0.25522202 -0.10397315 0.24270949 -0.22769926 0.16856226 -0.30366704
-0.20514962 -0.032158583 0.12126839 0.027697584 0.07635951 0.15827557 -0.18620533 -0.17900424
00000000: 7910 82be a050 463d 0232 513e c010 bdbb
00000010: 008e e63c 4e85 75be c06f fb3b 08b0 62be
00000020: 9eef 92be 4ec5 27be 48bc 2e3e eca7 90be
00000030: 9801 153e 10b3 5bbe cef2 0f3e 005f 393d
00000040: c070 993b e0fb 083d 4089 4c3c 1063 7e3d
00000050: de32 2b3e c82d 1cbe 57a1 8f3e a874 113d
00000060: e828 10be 2234 b8bd 6616 a1be d8dd 01bd
00000070: 8e57 4d3e 4c90 c1bd 6497 ebbd 93cf 7c3d
00000080: e229 67be 5a9c 183e de34 5f3e b392 5f3d
00000090: 5b37 933e a046 743c b131 f23d 10b6 5a3d
000000a0: 7064 1a3d c8c3 1a3e 2ca7 233e ea78 323e
000000b0: 6cc3 edbd ea47 13be d7c0 9e3e 405c d3bb
000000c0: 505b 89be 70f6 da3d a00d 203d 4099 f2bc
000000d0: bbb7 9abe 1c6c fe3d 854b 923e e4f4 b6bd
000000e0: 008f cebb b834 77bd 8083 83bb bc49 813d
000000f0: c8e9 273d f1c0 0d3d cc4e 873d 5daa 843e
00000100: c808 883d 8aee 64be b69a 8dbd 1fec 8abe
00000110: 0d18 a63e 0252 5d3e 18dd d03d 9f91 34be
00000120: 54a5 c13d 40c3 09bc 1810 1abd 9085 35be
00000130: 00a3 ddbc 46de 583e a7b5 97be 02b9 333e
00000140: 7bd3 8bbe 1644 09be dc44 43be 50b8 453d
00000150: b843 70bd 50a4 723e a91a 8cbe 9ca6 3cbe
00000160: 8469 9dbe caaa 433e d6a1 d9bd f8fe 81bc
00000170: f618 4b3e 146c 02be 6654 153e c673 043e
00000180: 9a8a 72be b4eb f13d d295 833e 9cc3 eb3d
00000190: d627 d6bd 83a8 ef3d 880d 4d3d 5c8e 83be
000001a0: e0d1 a4bd 12f1 163e 7885 1c3e 8098 bfbc
000001b0: b930 143d 00aa 553b 98e4 f5bd a497 0ebe
000001c0: 9693 00be ddfa 883e 0416 98be 5d5f b73d
000001d0: a9f7 9f3e 605c f23c 26ec 6bbd b265 503e
000001e0: 7431 8ebe 338d 713d 5265 7f3e cc48 033e
000001f0: 1a68 2d3e c0b2 74bd c64d b1bd 80b6 9ebb
00000200: 2552 a23d 3074 5fbd 4ed7 773e 4eb2 2ebe
00000210: a057 9a3d c8e8 fa3d 4f05 933e 3ab5 7d3e
00000220: e8f3 133e d0ca 95be bc6d 5bbe f07d af3d
00000230: 1427 9a3d 8e00 393e 0ae1 433e 7ca6 8c3d
00000240: e82d 943d 8772 093d d614 8bbe f817 2f3d
00000250: 3b75 5f3e 801a 123c cfaa 25be 98f4 053d
00000260: 609a 11bd b9fe 2ebe 9b35 84be 00ec b9b9
00000270: 13f1 873e 5806 16bd 90a5 15bd 5d9b 873e
00000280: c22c 3b3e 2152 123e 8f2e 93be a907 80be
00000290: a590 17be b6c2 243d b314 863e d6bc e9bd
000002a0: 01b6 a03e 0011 b5bb d0b0 0abd 5a79 a63b
000002b0: 4ef1 413e cdfd 853e f431 e9bd 2bf9 073e
000002c0: 1019 d03c 4673 5e3e 04f3 4d3c ccfa d73d
000002d0: 79ef 993e 9efa 80be 05b5 863e ce0c 67be
000002e0: c97f 8fbe 8c54 c4bd 4c96 a03d 8cfa 97bd
000002f0: 2faa 94be 7043 703d a73f 9c3e fd04 87be
00000300: 9a60 233e 0f1b 873e 8905 893e d88d 5cbd
00000310: 037b 31be 12f9 63be b8a2 a1be 8adf 793e
00000320: e637 453e 1dda 9f3e 0094 933a 2aca 61be
00000330: a4e2 a2bd 30d1 d33d da57 c1bd 607f ffbc
00000340: 28e4 a93b d5da 87be 4e7c 86be 95ba 023e
00000350: 5c43 b43d 8230 27be 40f4 eebb b659 b93d
00000360: b683 4dbe c0dd 283d 7f06 bd3b 7462 99bd
00000370: 5402 023e fa78 0cbd 30fe 8ebd 02f1 d2bd
00000380: 2e90 7d3e fb6c 693e 6aca 9abe ff87 893e
00000390: ee7b 40be ea4e 693e e0b5 f13d 95bf b2bc
000003a0: f803 6d3d 80a5 7d3d c35f 98be 9b51 783e
000003b0: 3846 cebd 2aa9 743e f2ee 98be f474 a23d
000003c0: 5201 9ebe 1066 d03c 76ac 82be e0ef d4bd
000003d0: d688 783e ff29 69be 969b 2c3e 3f7a 9bbe
000003e0: be12 52be b8b8 03bd 905b f83d 0be6 e23c
000003f0: 6062 9c3d fe12 223e 9cac 3ebe e34c 37be

hd_layer.bias f4 [30]
-0.25820145 -0.1494858 -0.27041876 0.15760455 -0.15675749 -0.1791372 0.059086636 -0.025433838
0.2180502 -0.15142675 0.15175435 0.008437722 0.1393725 -0.080662355 0.2139302 -0.0882103
-0.13967226 -0.030980365 -0.08460277 -0.31356335 0.014079314 0.01773705 0.01261807 0.31633675
-0.2052644 -0.09660325 -0.31161758 0.28718928 0.13081652 0.11388287
00000000: fb32 84be ce12 19be 5474 8abe 1663 213e
00000010: 0985 20be be6f 37be d404 723d a05a d0bc
00000020: 8d48 5f3e 9d0f 1bbe 7e65 1b3e 5f3e 0a3c
00000030: aab7 0e3e 4e32 a5bd 8510 5b3e 9aa7 b4bd
00000040: 3f06 0fbe 89ca fdbc 3844 adbd 608b a0be
00000050: ecac 663c 4a4d 913c 05bc 4e3c e4f6 a13e
00000060: d530 52be edd7 c5bd 578c 9fbe 790a 933e
00000070: c4f4 053e 6c3b e93d

out_layer.weight f4 [1, 30]
0.13462514 -0.16596287 0.14839129 0.10258784 0.086283475 0.14215827 0.08649321 0.019843519
-0.05599297 -0.06962267 -0.09235592 0.011913618 -0.080415554 0.13175058 -0.0014449756 0.079527736
0.084519036 -0.10415342 -0.032484666 0.13415086 0.033014324 0.107409604 -0.07880275 0.17102231
0.11102992 0.0024669964 -0.14283924 -0.041456286 -0.12168967 0.07024068
00000000: 2cdb 093e 2cf2 29be e3f3 173e 9319 d23d
00000010: 64b5 b03d f091 113e 5a23 b13d e08e a23c
00000020: e258 65bd 5596 8ebd 1a25 bdbd 5631 433c
00000030: e9b0 a4bd a0e9 063e 5665 bdba 70df a23d
00000040: 5118 ad3d 634e d5bd a40e 05bd d85e 093e
00000050: 073a 073d 91f9 db3d 5663 a1bd 7920 2f3e
00000060: a863 e33d 55ad 213b 7344 12be 11ce 29bd
00000070: 6f38 f9bd 58da 8f3d
