Torch_DL/models/iris/model_train_wbs_0_0.40856456756591797.pth (torch, 4660 bytes, 5 tensors)

in_layer.weight f4 [10, 3]
0.23724425 0.43200633 0.5464973 -0.19797005 -0.23186572 0.4085484 -0.04816316 -0.10968267
0.51473826 0.19182819 0.48401305 -0.3015001 0.011657217 0.175401 -0.45316324 -0.5319327
0.2615229 0.5159081 0.44094664 -0.30909607 0.20525266 0.43766195 0.15675758 0.5255387
0.33920312 -0.49049258 0.5287084 -0.56592876 -0.20966315 0.21163523
00000000: 28f0 723e ef2f dd3e 3fe7 0b3f a9b8 4abe
00000010: 356e 6dbe 422d d13e bc46 45bd 4fa1 e0bd
00000020: e3c5 033f 9c6e 443e 8fd0 f73e 395e 9abe
00000030: e9fd 3e3c 529c 333e 0305 e8be be2c 08bf
00000040: 54e6 853e 8e12 043f c2c3 e13e d741 9ebe
00000050: c12d 523e 3a15 e03e 0f85 203e b489 063f
00000060: 08ac ad3e d821 fbbe 6f59 073f b5e0 10bf
00000070: f0b1 56be e8b6 583e

in_layer.bias f4 [10]
0.030959208 0.40167838 0.55827546 -0.35864404 0.44844952 0.46121368 -0.26913473 -0.4743052
-0.0646894 -0.23222947
00000000: 2a9e fd3c caa8 cd3e 24eb 0e3f 31a0 b7be
00000010: 2d9b e53e 3324 ec3e 07cc 89be 22d8 f2be
00000020: e07b 84bd 90cd 6dbe

hd_layer.weight f4 [30, 10]
-0.09555622 0.18389866 -0.018999372 0.19273248 0.099166624 -0.29786837 0.21268468 -0.009410184
-0.16783565 0.27700523 0.13436837 -0.2839557 -0.0012848105 -0.025780128 -0.27471843 -0.1894272
-0.21161902 0.11906516 -0.1921852 0.0714474 0.17764413 0.17221044 0.06779549 0.27537504
0.05281589 -0.2251434 0.13772435 -0.0135371685 0.13835664 0.30013433 0.19851889 -0.14277077
0.04138202 0.053458735 -0.12964651 0.20185968 -0.08959386 0.08066654 0.10527527 -0.3084285
0.18693924 -0.07952606 0.29504484 0.16891433 -0.118311465 -0.13890593 -0.21285792 -0.103063636
0.28305554 0.047041237 -0.07940681 0.0049335957 0.032414317 0.14221549 -0.08396211 0.07362747
-0.13461278 -0.1350394 -0.0011413991 -0.031273484 -0.27716926 -0.23153135 -0.034831613 -0.3014795
0.17456016 0.03476858 0.17143136 -0.18539435 -0.2008381 0.21985063 0.031311303 -0.24770623
-0.29634923 -0.04097423 -0.22390202 0.13419092 0.0630385 -0.26751608 -0.30407017 -0.0092873275
-0.024158861 -0.25687435 -0.15695491 -0.0139223365 -0.20659962 -0.17798303 0.22818525 0.2549996
-0.20808095 -0.30534425 -0.10610923 -0.26423115 -0.31132188 -0.052723587 -0.08869168 -0.08728282
-0.10786064 -0.0026299953 0.0672659 0.065918416 -0.14806625 0.23318045 -0.23221365 -0.22468472
0.1210404 -0.061625298 0.27350706 0.23400079 -0.0958423 -0.19754909 0.09321105 0.0015003688
-0.21256137 0.23485835 0.09141774 -0.32269472 0.112415746 0.14948182 -0.0005235815 -0.17265685
0.15815176 0.1429407 -0.22176792 0.29859698 -0.05495305 -0.066586636 0.14642702 0.15943827
-0.24937555 0.19104907 0.13505733 -0.30934644 0.30281517 -0.1571405 0.22547022 0.3052152
-0.30396992 -0.1462983 -0.19484085 0.2669969 0.09632493 -0.03427139 -0.057720248 0.080231465
-0.058433887 0.19458598 0.05061393 -0.2443145 0.17697328 0.28166518 -0.2544191 0.13482103
-0.10940623 0.23710385 0.2950205 -0.027349204 -0.20243074 -0.17299956 0.02692309 -0.11732277
0.22859062 -0.2544845 0.060403485 -0.034274794 -0.109879434 -0.111927964 -0.17379825 0.08892401
0.15988939 0.2372419 0.02661097 -0.018638343 0.06301415 0.20136222 0.019604474 0.06277883
-0.10443279 -0.22634774 -0.0054386556 -0.25951573 0.143986 -0.042649347 0.06225711 -0.2509844
-0.13688794 0.29934707 0.19012149 0.3062217 -0.29487708 0.17581925 0.04379777 -0.15112995
0.0021374887 0.05811875 0.19917856 -0.17569542 0.0019888692 0.20777793 -0.3040747 -0.29239106
0.024792865 -0.297101 -0.15633379 0.25728208 0.27477968 0.1270763 -0.22846831 0.1489877
0.09735691 -0.23825172 0.02505106 -0.26265866 0.22098318 0.18584363 -0.17256846 0.29401833
0.1674822 -0.17257038 0.03351784 0.30792132 0.1889941 -0.15981418 -0.11940249 -0.24473937
0.29335576 -0.13685179 -0.2539136 0.039502278 -0.19139886 -0.015837163 -0.24550192 0.24913386
0.026067138 -0.22664598 -0.19292575 -0.063283235 -0.2507553 0.045873314 0.19014004 0.09641504
-0.19613579 0.1784406 0.03460437 -0.035836786 -0.2864638 0.24206278 -0.09615104 0.09401086
-0.04140401 0.07926938 -0.16858408 -0.11554158 0.029784024 -0.07324511 0.25943008 -0.08382304
00000000: fbb2 c3bd ee4f 3c3e 92a4 9bbc aa5b 453e
00000010: df17 cb3d 3482 98be 03ca 593e 2c2d 1abc
00000020: 1cdd 2bbe a1d3 8d3e dd97 093e a462 91be
00000030: 1667 a8ba d930 d3bc e5a7 8cbe 34f9 41be
00000040: a8b2 58be 6fd8 f33d 32cc 44be 0453 923d
00000050: 58e8 353e ef57 303e 5dd8 8a3d f5fd 8c3e
00000060: 7a55 583d fe8b 66be 9d07 0d3e 00cb 5dbc
00000070: 5dad 0d3e 35ab 993e 8948 4b3e 8032 12be
00000080: 3180 293d 8cf7 5a3d 0ec2 04be 4eb4 4e3e
00000090: fc7c b7bd 8034 a53d 909a d73d 57ea 9dbe
000000a0: 006d 3f3e 8fde a2bd 1e10 973e e1f7 2c3e
000000b0: 484d f2bd 5b3d 0ebe 6df7 59be 0713 d3bd
000000c0: a8ec 903e 50ae 403d 0aa0 a2bd 00aa a13b
000000d0: e0c4 043d f0a0 113e 54f4 abbd 00ca 963d
000000e0: efd7 09be c547 0abe 009b 95ba a018 00bd
000000f0: 21e9 8dbe 8e16 6dbe 98ab 0ebd 855b 9abe
00000100: e6bf 323e 8069 0e3d b48b 2f3e 04d8 3dbe
00000110: 81a8 4dbe 8620 613e 4840 003d b4a6 7dbe
00000120: 16bb 97be 98d4 27bd 9246 65be 5869 093e
00000130: 541a 813d def7 88be 16af 9bbe e029 18bc
00000140: cee8 c5bc 0985 83be cab8 20be 831a 64bc
00000150: da8e 53be 2f41 36be 65a9 693e 4f8f 823e
00000160: 2c13 55be 1556 9cbe cc4f d9bd 4e49 87be
00000170: 9565 9fbe b0f4 57bd fca3 b5bd 56c1 b2bd
00000180: 0ae6 dcbd 005c 2cbb b4c2 893d 3c00 873d
00000190: ae9e 17be dbc6 6e3e 6ac9 6dbe c013 66be
000001a0: 07e4 f73d cf6a 7cbd 1e09 8c3e e79d 6f3e
000001b0: f848 c4bd 4f4a 4abe 6fe5 be3d 06a8 c43a
000001c0: b0a9 59be b57e 703e 3939 bb3d 3e38 a5be
000001d0: 3a3a e63d c311 193e f640 09ba f5cc 30be
000001e0: 89f2 213e 0c5f 123e 2117 63be b4e1 983e
000001f0: 7316 61bd 935e 88bd f7f0 153e c943 233e
00000200: 4e5c 7fbe 5ea2 433e 784c 0a3e a862 9ebe
00000210: 970a 9b3e 70e9 20be aae1 663e 2b45 9c3e
00000220: f2a1 9bbe 39cf 15be 5c84 47be d1b3 883e
00000230: 0146 c53d 2860 0cbd 116c 6cbd 6550 a43d
00000240: 5f58 6fbd 8c41 473e 8d50 4f3d 952d 7abe
00000250: 7c38 353e 6b36 903e 3843 82be 860e 0a3e
00000260: 6010 e0bd 5acb 723e ed0c 973e 700b e0bc
00000270: 014a 4fbe cc26 31be d08d dc3c ec46 f0bd
00000280: a913 6a3e cb4b 82be a569 773d ba63 0cbd
00000290: 7808 e1bd 7d3a e5bd 2bf8 31be cb1d b63d
000002a0: 0bba 233e 8aef 723e 40ff d93c 70af 98bc
000002b0: 900d 813d e631 4e3e 9099 a03c 3092 803d
000002c0: dce0 d5bd b4c7 67be c036 b2bb 3fdf 84be
000002d0: 1171 133e 15b1 2ebd 5001 7f3d 0781 80be
000002e0: 5a2c 0cbe 0544 993e 35af 423e 17c9 9c3e
000002f0: 21fa 96be f609 343e 4a65 333d cfc1 1abe
00000300: 1c15 0c3b ed0d 6e3d 77f5 4b3e 80e9 33be
00000310: b057 023b bdc3 543e aeaf 9bbe 48b4 95be
00000320: 681a cb3c 9f1d 98be f715 20be 7aba 833e
00000330: ecaf 8c3e 4a20 023e 99f3 69be 3b90 183e
00000340: 0f63 c73d 42f8 73be e137 cd3c 327b 86be
00000350: 6a49 623e cb4d 3e3e c9b5 30be 9289 963e
00000360: 7480 2b3e 4ab6 30be 014a 093d dda7 9d3e
00000370: ab87 413e 54a6 23be 4b89 f4bd f59c 7abe
00000380: ba32 963e e022 0cbe f700 82be 24cd 213d
00000390: 10fe 43be f0bc 81bc db64 7bbe f21c 7f3e
000003a0: c08a d53c e215 68be 548e 45be a49a 81bd
000003b0: 0063 80be a8e5 3b3d 12b4 423e 4075 c53d
000003c0: d2d7 48be 22b9 363e 50bd 0d3d 98c9 12bd
000003d0: 62ab 92be 4edf 773e d6ea c4bd c488 c03d
000003e0: 4097 29bd fc57 a23d 4ea1 2cbe 10a1 ecbd
000003f0: a0fd f33c 8801 96bd 05d4 843e 6aab abbd

hd_layer.bias f4 [30]
0.32318938 -0.087635726 0.24836501 0.279161 -0.2495208 -0.2599667 0.25221744 0.023121417
-0.18371032 0.27105275 0.21900389 -0.21821974 0.11939022 -0.13513339 -0.015651168 0.2239894
0.20806435 -0.2716403 0.122734055 -0.13759582 -0.1981446 0.2600076 -0.0018812981 -0.13400409
0.27986947 -0.06555891 -0.1394322 -0.030567646 0.27813005 0.02779419
00000000: 1479 a53e 5c7a b3bd 6653 7e3e 31ee 8e3e
00000010: 6182 7fbe 5b1a 85be a522 813e 2069 bd3c
00000020: 8f1e 3cbe 6dc7 8a3e 8e42 603e ff74 5fbe
00000030: dc82 f43d 6860 0abe e136 80bc 7a5d 653e
00000040: d20e 553e 7014 8bbe fe5b fb3d ebe5 0cbe
00000050: 6be6 4abe b71f 853e e495 f6ba 5e38 09be
00000060: 0d4b 8f3e c043 86bd 51c7 0ebe 0069 fabc
00000070: 1067 8e3e a4b0 e33c

out_layer.weight f4 [1, 30]
-0.04037691 -0.13894607 0.09163044 0.10345836 -0.05573774 0.07978612 0.022962153 0.120794415
-0.078987025 -0.025668591 -0.113177866 -0.00612147 -0.014463294 -0.07229174 -0.07327233 -0.06505227
0.034705892 0.05132389 0.14078979 0.16977207 -0.12200396 -0.05777295 0.12699287 -0.035659105
-0.10864995 -0.16352357 0.11582187 0.08103001 0.027598774 -0.13468051
00000000: 4262 25bd e147 0ebe bda8 bb3d fae1 d33d
00000010: 424d 64bd e866 a33d 201b bc3c 1063 f73d
00000020: f3c3 a1bd f046 d2bc ccc9 e7bd 9d96 c8bb
00000030: 74f7 6cbc b10d 94bd ce0f 96bd 203a 85bd
00000040: c427 0e3d 0039 523d 332b 103e bbd8 2d3e
00000050: 36dd f9bd 54a3 6cbd 6b0a 023e 480f 12bd
00000060: dd83 debd b972 27be 0434 ed3d 10f3 a53d
00000070: d316 e23c b0e9 09be
