Torch_DL/models/iris/BCF/model_all.pth (torch, 4060 bytes, 5 tensors)

weight f4 [10, 4]
00000000: 1605 903e fb8b 96be 359c 933e 4265 033f
00000010: c9e2 053f 2a48 c73e 37fb 01be 675f ad3e
00000020: 386d 5f3e 38b6 183e b354 3ebe aa23 db3e
00000030: d4d3 35be 7096 d23d f5ee 693e 2952 de3e
00000040: fa9c dc3e 98e5 a8bc 8a21 a7be ab9b a53d
00000050: 3656 bfbe c40b 7f3e 1833 713e 3065 63bd
00000060: fe90 d53e 3068 6ebe bc2b df3e ab16 9abe
00000070: 4012 c83d d073 b8be c049 0a3d 50f2 cfbe
00000080: c4c8 403e bcea a1be b437 dcbe 00af 4dbe
00000090: 9e0a d8be e828 c4bd 68b8 c73d 3ad0 aebe
0.2812888 -0.29403672 0.28830114 0.5132638 0.5229917 0.38922244 -0.12693487 0.3386185
0.21819007 0.14913261 -0.18586998 0.42800647 -0.17756587 0.102826 0.22845061 0.43422058
0.43088514 -0.020617291 -0.32642776 0.08086332 -0.3737046 0.24906832 0.23554647 -0.05551642
0.41712183 -0.23281932 0.43588054 -0.3009542 0.09769106 -0.36025858 0.03376174 -0.40614557
0.18826586 -0.316244 -0.43011248 -0.20086288 -0.421956 -0.09578115 0.097519696 -0.3414324

bias f4 [10]
00000000: 9e10 993e b5ed f53e 732a d43e 8869 02bf
00000010: 1e6b 43be 0836 ccbd 6529 b6be 5607 adbe
00000020: 4021 383c 0aa0 f63e
0.2989549 0.4803292 0.41438636 -0.5094228 -0.1908383 -0.09971243 -0.35578457 -0.3379466
0.011238396 0.48168975

weight f4 [5, 10]
00000000: 0f68 6b3e 61f3 653e dc13 b03c eb7b 68be
00000010: 481b 29be cc83 e23d 7e4c 9a3e c48c 5cbe
00000020: 800e e6bc a5c4 823e 9bba 953e 6eec 95be
00000030: 79ae 8a3e e5a2 22be 2009 17bc e326 4bbe
00000040: b699 2dbe b15b 37be a68e 9dbe 6dbe 903e
00000050: 82d1 a2bd e297 d43d 631d c63d c704 19be
00000060: 061f 92bd 47b2 9bbe a59b 01bc 8974 9e3e
00000070: de12 693e b0e1 a33d a007 10bd 9086 6abe
00000080: b3ec 253d b66f 51be a3e8 aa3d ee05 36be
00000090: c268 563e 90f5 4d3d a0c9 f23d 8adf 6abe
000000a0: 1e61 c4bd 71e9 2c3e a615 df3d c278 3b3e
000000b0: 00ab f23d 98d1 913d 5837 5fbe 60ae 053d
000000c0: e5c4 893e f3b8 903e
0.22988914 0.22456123 0.021493845 -0.22703521 -0.16514313 0.110602945 0.30136484 -0.21538073
-0.028083086 0.25540653 0.2924393 -0.29281944 0.27086237 -0.15882452 -0.009218484 -0.19839053
-0.16953167 -0.17906071 -0.30772895 0.28270283 -0.07950117 0.10380532 0.09673574 -0.14943229
-0.071348235 -0.30409452 -0.007910644 0.30948284 0.22761104 0.08002031 -0.03516352 -0.22902894
0.040508937 -0.2045277 0.08345153 -0.177757 0.209384 0.050283015 0.11854863 -0.22936836
-0.09588836 0.16885926 0.10892801 0.18307784 0.11849022 0.07120055 -0.21798456 0.032637
0.2690803 0.28266105

bias f4 [5]
00000000: 2383 30be dcf6 f2bd 8226 80be fdba 8e3e
00000010: 0dfc 91be
-0.17237525 -0.11863491 -0.2502938 0.27877036 -0.28512612

weight f4 [1, 5]
00000000: 6780 2bbe c0e0 6a3d 33b9 b33e e51c 993e
00000010: 8ab0 8c3e
-0.167482 0.057343245 0.35102233 0.29904857 0.2747844
